ht1.ckpt (torch, 504668 bytes, 293 tensors)

wavenet.input_conv.weight f4 [16, 1, 1]
00000000: 7fe7 f23e da44 72be 00eb 74bf 2e5e 833f
00000010: 5ca6 b53f c776 2e3f 029e 863f 9464 fdbf
00000020: 1745 aabf 0087 ee3e f1db cf3e 86c9 52be
00000030: 7bfa 863f 8298 b6bf dc34 e2be 37cd 9dbf
0.47442243 -0.23659077 -0.9567108 1.0263116 1.4191394 0.6814999 1.051697 -1.9796319
-1.3302335 0.46587372 0.4059749 -0.20584688 1.054519 -1.4265292 -0.44180954 -1.2328252

wavenet.input_conv.bias f4 [16]
00000000: 245b bcbd 811a 703d 9435 8fbd 7361 a23e
00000010: 42cd 5ebf 98fd a73e 5109 9abe 14fe 24be
00000020: 92d1 0c3f 95fe 05bf 5964 f5be 0546 47bf
00000030: bc28 65bd 31cc 0dbf 514b 28bd feb7 0cbf
-0.09197071 0.058619026 -0.06992641 0.31714973 -0.8703195 0.32810664 -0.30085233 -0.16112548
0.5500728 -0.52341586 -0.47928122 -0.77841216 -0.05594705 -0.55389696 -0.041087452 -0.5496825

wavenet.dilated_convs.0.weight f4 [32, 16, 2]
00000000: 2995 783e b017 2b3e 303f 3dbe 7ff8 d9bd
00000010: 7b17 2fbc 4096 70bd bb80 c1bd 79fc adbb
00000020: 31c1 7c3e 2200 643e 7a02 88bd a61e f03d
00000030: 1c39 b3bc 4b61 893c e41e 21be d776 16be
00000040: 3fb0 05be 4278 6abe 4422 cfbd 7a9f 2abd
00000050: 2354 1f3d 4cd7 023c f5a1 2e3d 7c73 2cbd
00000060: 8562 993e 6129 233e 0f35 12be fe5e e73c
00000070: ad73 ddbd a9ff 223e ebbd e1bd cfdc b2bd
00000080: 71b2 3f3e 34fd db3d cf36 bf3c e01c 2cbe
00000090: b69c 333e 1ef6 a93c 2dbb 15be 107f 22be
000000a0: 2283 07be 2dc2 17be 773f 4dbe 3b9d f53d
000000b0: 59e4 14be 2eca eebd 9579 0e3e 09c8 cabd
000000c0: 3da1 373e bd3f 5ebb 570d de3b 42f6 7a3d
000000d0: abec 2fbd 98dd 913d 331c 9e3d 6697 513d
000000e0: 7e0a 07be b732 1f3e e739 6d3e 0654 1a3c
000000f0: cdd8 3d3e 9766 39be 7817 c23d 22d0 09bd
00000100: 3f64 f83d 10fa 183e 7804 7f3d 6570 54be
00000110: c0bb 34bd 8f3c 8abe 416a 903d 1e2b 97bd
00000120: c1c9 4dbc 0def 023c 87ff bcbd c504 60bc
00000130: e46b e23d 3bf2 e23b b1b6 ec3c 92e0 b5be
00000140: 33cc 03be f114 0abd f588 03bd 0909 ad3d
00000150: b447 dbbd 622c 2e3e 9438 2abd fc67 f5bd
00000160: 7533 f93d 34ca fc3e c1ab b9bd 1049 46be
00000170: c0dd 083e 10c1 80bd daae 513c 3cf7 06be
00000180: 0f04 dfbd 4f07 06be b3a8 93bc bc73 aebd
00000190: eeb1 ebbd 1811 7c3d 2fef ddbd f73f 9fbd
000001a0: 5ca8 273d 7d03 983d 580e 14be b8db 49bd
000001b0: 88ab 40b9 5f4f 5cbe 8918 df3d b298 80bc
000001c0: 3b2c 093e b244 bc3c 2ac4 06bd 3a18 353d
000001d0: 05ec 18be b584 d0bd 236f cfbc 13f9 d43d
000001e0: 894e 493d 5b93 c7bd 61ce 543c cf8a efbc
000001f0: ed9a d13d 3f65 093e d0a6 ecbc 7ff7 533c
00000200: 6106 9f3d b687 063e a2d9 c1bd 01f1 fd39
00000210: c886 a5be 5175 5abe a81a f93d 7592 2a3d
00000220: c0dd 0bbe 0d0b df3d 1b10 333e 951d 233e
00000230: 2d9a 9c3c 8c94 fc3c cd83 c0bd e778 73be
00000240: 8803 abbd 0ad0 1e3e f8ad 9dbd 936b cf3c
00000250: e80b d33d 29e9 0dbe 3af3 c9bd 6497 62be
00000260: 456a 06bd e73a 073d 74ee 7cbe fee3 6bbe
00000270: 08ff 49bd b1f8 f7bd 66f3 9abd 704a 20be
00000280: d3ee 953c 7325 c0bd 3c89 f43d 644d 863d
00000290: 819f 14be 6d35 40be 916f 95bb b74e b63d
000002a0: 1670 963d 7b67 773c 573f 0fbb df8f 2e3e
000002b0: c23b a43d 40cf 113e 8dc5 3fbe 9581 61be
000002c0: 51d3 e0bd abbc 29be bc8a 83ba 3b5e b43c
000002d0: 522e 2fbe 309f 3dbe bb4e 1e3d bcf2 013e
000002e0: 85b3 2d3c b044 843e 5502 d5bc 1f43 32be
000002f0: 0f91 11be 7aa3 06be 8c91 24bc 38b1 a43d
00000300: 9264 353e 54c0 753d 2f0f 80bd a50f 513d
00000310: a551 7dbb 75b3 adbe 477e e63d 3dc8 863e
00000320: 6b87 0abe e5ea 783e ea55 003d 3754 323e
00000330: df6c 373c 5e95 1a3e ad00 03be f1bd e6be
00000340: 8c73 0c3d a335 49be cd3c bc3d de3a a3bd
00000350: 98c2 a2bd 5ed5 333e 1d79 d93d bdcf 043d
00000360: 33e9 833e ebc9 ea3e adfb 843d 25e2 85be
00000370: 72cd 51be d5f6 d2bd e3ee a6bd 8012 b8bd
00000380: f345 553e 9507 fa3d 7c53 ad3c 51e1 193e
00000390: a745 a1be 1e59 27bc 9eb7 5d3e 6cf2 16be
000003a0: 91ef 0e3e 7ffc 783c b1a1 8bbc a3f1 82bd
000003b0: a73f 163e 7d5b e2bd 7403 85be 77e2 87bd
000003c0: 2281 4bbe b480 123e ffe8 56bc 7040 133d
000003d0: fe75 93bd 2a4e 113e 2a89 2b3c e532 b8bc
000003e0: e91e 9b3d 26f2 ef3d bcc5 63bd 30f0 24be
000003f0: 1289 fabc 48b8 dcbd 861d 56be 67b8 eb3d
0.2427565 0.16708255 -0.18481135 -0.106431 -0.0106867505 -0.05873704 -0.094483815 -0.005309638
0.24683072 0.22265676 -0.06641097 0.11724596 -0.021877818 0.016770026 -0.1573444 -0.14693771
-0.13055514 -0.22897437 -0.101139575 -0.041655995 0.0388986 0.007985901 0.042634923 -0.042102322
0.29957977 0.15933754 -0.14278053 0.028243538 -0.10813079 0.15917839 -0.11022552 -0.08733522
0.18720414 0.10741654 0.023341564 -0.1680789 0.17540249 0.02074724 -0.14622183 -0.15868783
-0.13233617 -0.14820166 -0.20043741 0.1199288 -0.14540233 -0.116596565 0.13913567 -0.09901435
0.17932601 -0.0033912503 0.0067764926 0.061270006 -0.042950314 0.07122344 0.07720222 0.051169775
-0.13187596 0.1554669 0.23166619 0.009419447 0.18539734 -0.18105541 0.094771326 -0.033645757
0.121284954 0.14939141 0.06226012 -0.20746 -0.044124365 -0.26999328 0.07051516 -0.07381271
-0.012560309 0.007991564 -0.092284255 -0.013673012 0.11055735 0.006925849 0.028895708 -0.35522896
-0.12870865 -0.033711378 -0.032113034 0.08448989 -0.10707036 0.17009118 -0.041557863 -0.11982724
0.12168018 0.4937302 -0.090659626 -0.19363809 0.13365841 -0.06286824 0.0127980355 -0.1318025
-0.10889446 -0.13088726 -0.018024778 -0.08518168 -0.11508547 0.06153974 -0.10836636 -0.07775872
0.040932044 0.0742254 -0.14458597 -0.049281806 -0.00018374447 -0.21514653 0.108933516 -0.01569781
0.13395779 0.022981975 -0.03290192 0.044212557 -0.14933784 -0.10181562 -0.025321549 0.1039907
0.049147163 -0.09744903 0.012988658 -0.029240994 0.10234628 0.13417529 -0.028888136 0.012937426
0.077648886 0.13137707 -0.09465338 0.00048435482 -0.32329392 -0.21333815 0.121632874 0.04164358
-0.1365881 0.1089078 0.17486612 0.15929253 0.019116485 0.030832551 -0.09400139 -0.2377659
-0.08350283 0.15509048 -0.076991975 0.02531985 0.10305005 -0.13858475 -0.09860845 -0.22128063
-0.03281619 0.033015158 -0.24700338 -0.23036191 -0.049315482 -0.12107981 -0.07565956 -0.15653396
0.018302357 -0.09382143 0.11940238 0.0655773 -0.14513971 -0.1877038 -0.004560419 0.089017324
0.073455974 0.015100355 -0.0021857822 0.1704707 0.080192104 0.14239216 -0.18727703 -0.22022088
-0.109778054 -0.16575877 -0.0010035853 0.022017589 -0.17107514 -0.18517756 0.038649302 0.12690252
0.010601883 0.25833654 -0.026002089 -0.17408417 -0.14215492 -0.13148299 -0.010044467 0.08041614
0.17714146 0.05999787 -0.06252896 0.05104031 -0.00386534 -0.33925977 0.11254554 0.26324645
-0.1352822 0.24308355 0.031331934 0.17414938 0.0111953905 0.15096042 -0.12793227 -0.4506679
0.03428988 -0.19649367 0.09191284 -0.079702124 -0.07947272 0.17561862 0.10618804 0.032424677
0.25763854 0.45857176 0.06493316 -0.26149097 -0.20488527 -0.10300986 -0.08151033 -0.089879036
0.20827465 0.122084774 0.021157973 0.15027358 -0.31498453 -0.010214118 0.21652076 -0.14740914
0.13958575 0.0151969185 -0.017044874 -0.06393745 0.14672719 -0.11052606 -0.25979197 -0.066349916
-0.19873479 0.14306909 -0.013117074 0.035950124 -0.072002396 0.14189973 0.010469714 -0.022485206
0.07574255 0.11716108 -0.055608496 -0.1610725 -0.030582938 -0.10777336 -0.209097 0.11509781

wavenet.dilated_convs.0.bias f4 [32]
00000000: 55e0 7e3d c0c0 023e 7c79 dfbc 85ee 76bc
00000010: a5b6 5a3e 51b3 17bd 5d5d 203e 9f3b bcbc
00000020: 01d7 79bd c7de 8a3b 6d4a 9bbd 51c6 223e
00000030: b606 0cbd f8f9 5a3b 6c3f bdbd e5fb a93d
00000040: 3dee 4e3e 2cdd 2cbc 480e b5be b18d c2be
00000050: 4575 c93c 4ef6 0ebe 5f1c 923d 3f1c f13e
00000060: 54dd 92be 1f43 90bd db6b fd3b a503 843e
00000070: c424 32be 1c37 cdbd b334 b7bd 5680 d1bc
0.06222566 0.12768841 -0.027279608 -0.015071516 0.21358736 -0.037036244 0.15660615 -0.022977648
-0.06099606 0.004237983 -0.07582555 0.15895964 -0.034186088 0.0033413153 -0.092406124 0.08299998
0.20208068 -0.010550778 -0.35362458 -0.37998727 0.024592051 -0.13961145 0.071343176 0.47091863
-0.28684485 -0.07044052 0.0077338046 0.2578403 -0.17396837 -0.10020277 -0.089455985 -0.02557389

wavenet.dilated_convs.1.weight f4 [32, 16, 2]
00000000: 7abe bc3e 47a1 a8be 96c8 9ebe 01e3 fa3d
00000010: 260f a2be bd32 253e 1bb5 3a3e d17b 22bd
00000020: 806c c03d 9bf9 36be 31d0 073e 0ffb bebd
00000030: 2f54 8ebd 9ad1 313c eee1 5ebe 883f 8b3e
00000040: 6fd7 25be d9b6 e33d d77d 2b3e c0e2 e13c
00000050: 7fd8 81be cd27 85be 00ad d0bc d879 06be
00000060: ca79 4f3d ac06 a2be 8cdf 8cbd 8e6f cd3d
00000070: 6759 2dbe 8282 1c3e 45e7 a63c af21 1c3e
00000080: c6db 0abe 956c 0c3e 4c09 4fbc acf0 07be
00000090: 43cd 503e db4b 69be 66ec 163d bde2 c7bc
000000a0: 30ae bcbd dae0 3e3e 05a6 86be c0f1 aebd
000000b0: 1d45 e53c d8eb 6a3e 8f7d d6bd 4533 4dbc
000000c0: 3c67 703e 3ce1 41be 1e89 5dbd d70e c33d
000000d0: fc09 8fbd 34c7 04be 2b95 0dbe a60a 933d
000000e0: e21e e13b cb90 01bd 4365 183e dd40 a0be
000000f0: ca78 403e 0586 033d d75f 3fbe 8eb7 86be
00000100: b942 9cbe 0d03 2ebe 5e9f 213e 2842 903d
00000110: 19df e2bd b954 f5bd 8b40 2f3e f691 a3bd
00000120: a609 753e 3ec8 003e 1261 20bd f563 1dbe
00000130: 068e 8b3e 8564 4e3d 718a 4abe 3da4 0a3e
00000140: 70fe 0cbe c990 203e 5f69 1a3d 3ea8 093d
00000150: 8734 493e 011e 243c e8ca fcbd cb43 27bd
00000160: f278 9e3d 4874 153e ddb5 0dbe e849 1fbe
00000170: fb40 193e fe89 c53d 3c61 e4bd aaef 053e
00000180: 2fdf 5dbe 3afa 6cbd d7ae 6cbd 20d1 433e
00000190: c038 19be 3911 b2bc da53 803d 8453 543d
000001a0: 1ea6 093e 55e9 99bd 63e2 953a adcb 62be
000001b0: e109 b83c 56dd 723e 8474 abbe 4080 793d
000001c0: 5c0b 373d 8ae4 d8bd 1481 d1bc acf8 0dbe
000001d0: 1f8e 95bd a4fa 163e 466d 163e 8a6b d53b
000001e0: 08ab d23d 7dbe a73d ad87 51bd c14c e9bd
000001f0: 68c4 733d 43f6 573e ab82 9fbd 122e 42be
00000200: 6203 2f3e 5925 523e 460c e2bd 6e4c ad3c
00000210: 0a57 3f3e bebd d0bc 9dd7 46be 63d0 38be
00000220: de2c 37be ec31 38be c200 1ebe ff0d 183e
00000230: 955e 94bd d22d 5c3e 4aba c43e 1854 693d
00000240: aaee d43c 1e47 b93d 43bc 553d 5a1e 253e
00000250: a2fb b5bd d3c2 7dbd 4b5d e1bd 508c d43d
00000260: 8d14 b1bd d56d a5bc 71cb f23d fcd1 12bd
00000270: 774a 3b3d a365 80be 2a7e 1a3e 24e8 a9bd
00000280: 7a73 83be d34a 883b 76b9 07bd e8a5 7ebe
00000290: 0775 9ebd ea4f 933c 38ee 47be 5e62 973d
000002a0: 2b50 e63d 7857 08bd e9d8 37be dab3 e9bd
000002b0: 822b b0bc 727c b23d fea9 6d3e f951 14be
000002c0: 33c7 ed3d b135 c9bd acac eb3d dcba 3a3c
000002d0: a157 eebd d62f 0f3d af2f 2f3e e733 3abe
000002e0: 6624 01be 0274 98bd b587 963c 8e6a c23d
000002f0: c0c6 183e 6138 d33d a94d b7bb 41a9 eb3d
00000300: 9a64 dfbd 6d20 163a 89f7 593d 9890 9bbd
00000310: 789a 09be 0417 95be 1cc3 84bd cf67 98bd
00000320: 8cd7 db3d d053 173e 1207 5abe 8dd2 173e
00000330: 2093 393b 5b4f 88bd 5ca2 88bd bc20 0dbe
00000340: 03e4 85bd 4b0c 7abc 4cdf 62be 8830 d03d
00000350: 94c5 1ebd 0d4d c4bd 3487 a8bd b116 1c3e
00000360: 10b9 06bd 89e7 d13d c2b7 01be 771c ee3c
00000370: 045a f0bd 4c65 dbbd 62b4 a9bd 8ed2 283c
00000380: 6184 b4bd 24f2 3d3d ebb2 1d3d 9539 be3d
00000390: 7896 9fbc bf4e adbc dcc7 453e 55b4 72be
000003a0: cb57 a4bd ed0d b4bd 8395 63bd 61f2 1fbe
000003b0: e329 c73a d901 24be ab90 1dbe cc32 d3bd
000003c0: 00bf 35be da70 a83b 6b81 413e bb7d 8a3d
000003d0: 43b6 383e 656c 823e 3273 c6bb eedc 3bbd
000003e0: 22ad b13d 2e07 f0bc 9ee4 09be e2e0 7dbd
000003f0: a62e 97bd 9b91 2cbc f42e 28be bc09 213d
0.36864072 -0.32935545 -0.3101241 0.12250329 -0.31652182 0.16132636 0.18233149 -0.03966886
0.09395695 -0.17868654 0.13263012 -0.093252294 -0.069496505 0.010853196 -0.21765873 0.27196908
-0.16195463 0.1111886 0.16747223 0.027573943 -0.25360486 -0.26006928 -0.025473118 -0.13132417
0.050653256 -0.31645715 -0.06878576 0.10031043 -0.16928636 0.1528416 0.02037395 0.15247224
-0.135604 0.13713296 -0.012636494 -0.13275403 0.20390801 -0.22782843 0.03684654 -0.02440011
-0.09212911 0.18640462 -0.26298538 -0.08542204 0.027987057 0.2294153 -0.10473167 -0.012524431
0.23476881 -0.18933576 -0.054085843 0.09524315 -0.06984326 -0.12966615 -0.13826434 0.071797654
0.0068701366 -0.031632226 0.14882378 -0.31299487 0.18796077 0.032110233 -0.18688904 -0.26311916
-0.30519655 -0.16993351 0.1578345 0.07043868 -0.11077709 -0.1197905 0.17114465 -0.07986824
0.23929462 0.12576386 -0.039155073 -0.15370162 0.27256793 0.05038883 -0.19779374 0.13539214
-0.13768935 0.15680231 0.037698146 0.033607714 0.19648944 0.010016919 -0.12343389 -0.040836137
0.07737912 0.14595139 -0.13838907 -0.15555537 0.14966194 0.096454605 -0.111513585 0.13079706
-0.21667169 -0.057855822 -0.057783928 0.19122744 -0.14963055 -0.021736728 0.062659934 0.05183746
0.13442275 -0.07515208 0.0011435266 -0.22148009 0.022465648 0.23717245 -0.33487332 0.060913324
0.044688568 -0.10590465 -0.025574245 -0.13864392 -0.07302498 0.1474405 0.14690122 0.006513064
0.10286528 0.0819063 -0.05115478 -0.11391593 0.05951348 0.21090035 -0.07788595 -0.18962887
0.17091134 0.2052206 -0.11037497 0.021154609 0.18685547 -0.025481101 -0.19418187 -0.18048243
-0.17888209 -0.17987794 -0.15429977 0.14849089 -0.072446026 0.21501854 0.38423377 0.056964964
0.02599271 0.09046768 0.052181493 0.1612486 -0.08885886 -0.061953377 -0.11004122 0.10378325
-0.08646498 -0.020193974 0.118552096 -0.035844788 0.045725312 -0.25077543 0.1508719 -0.082962304
-0.2567404 0.0041593104 -0.033135854 -0.24867976 -0.07737165 0.017982442 -0.19524467 0.07391809
0.112457596 -0.03328654 -0.17953838 -0.11411257 -0.021505121 0.08715142 0.23209378 -0.14484395
0.1161026 -0.09824694 0.11507544 0.01139709 -0.11637808 0.03495773 0.17108034 -0.18183862
-0.12611541 -0.07444002 0.018375257 0.0949298 0.14919567 0.10313488 -0.0055939746 0.11506892
-0.1090786 0.0005726878 0.053214584 -0.075959384 -0.13437831 -0.29119122 -0.06482527 -0.07441675
0.10734472 0.14778066 -0.2129176 0.14826412 0.0028316453 -0.06655761 -0.066715926 -0.13782018
-0.065376304 -0.01526172 -0.22155493 0.101655066 -0.038762644 -0.09585009 -0.08228913 0.15243031
-0.032891333 0.1024924 -0.12667754 0.029066307 -0.11735919 -0.1071268 -0.082863584 0.010304106
-0.08814312 0.0463735 0.038500708 0.09288327 -0.019480929 -0.021155713 0.19314522 -0.23701604
-0.08024558 -0.08791719 -0.055562507 -0.15619804 0.0015194978 -0.1601633 -0.15387218 -0.10312423
-0.17748642 0.005140406 0.18897025 0.067622624 0.18038277 0.25473323 -0.006056213 -0.04586499
0.086756006 -0.029300299 -0.13466117 -0.061982043 -0.07381944 -0.010532762 -0.16424161 0.039315924

wavenet.dilated_convs.1.bias f4 [32]
00000000: e174 a1bd 0584 dcbd 79f2 003e 37df 63bb
00000010: 7c8f 1c3c fc09 103e bf86 373e faa2 f03d
00000020: b669 073e c03b c3bd bb5c 1abe 32e0 26bd
00000030: 0b14 b23d dd0d 113c db6e 9d3d 164e 833a
00000040: 112f 0a3e 58a2 09be c382 8ebe 6027 fcbe
00000050: d512 51bd ca64 0cbe 88b2 e3be 194f 46bd
00000060: 1413 b8be 9fee e0be 86f2 8cbe 417d 2cbe
00000070: 7621 87be 6d79 36bd 78eb 423c 3673 f0bd
-0.07883621 -0.10767368 0.12592496 -0.0034770498 0.009555694 0.14066309 0.17922495 0.11749835
0.1322392 -0.09532881 -0.15074436 -0.040741153 0.08695229 0.008853403 0.0768716 0.0010017778
0.13494517 -0.13440835 -0.27834138 -0.4924879 -0.05104335 -0.13710323 -0.44472146 -0.048415277
-0.35952055 -0.43932053 -0.2752878 -0.16844656 -0.26392716 -0.044549394 0.01189696 -0.11740725

wavenet.dilated_convs.2.weight f4 [32, 16, 2]
00000000: 7f6e a3bd 3ce9 ecbd b88d 8fbb da07 72bd
00000010: 1196 2b3e c5aa ca3d f119 893d f3c1 58bb
00000020: 55d7 abbd baa2 28be 3ee7 e83c d925 153d
00000030: 879c f73c 3f35 5f3d 2382 a13d fbe6 843e
00000040: 95b7 633e 166a 33be 4943 81bd 0f54 363e
00000050: a84d 793d 2238 0ebe ad80 2d3c a015 bb3d
00000060: a98a 05be f4b4 b93c 43a8 1fbe 54be e73c
00000070: f4a1 05be 4e1c 8cbd 612f 8c3d 0d35 7b3e
00000080: 1899 723e ab88 ae3d d195 19be 440c 453e
00000090: 6222 10be 9d2e 6f3e f670 353e e29a a5be
000000a0: 9480 23be 94c4 dfbd 104f d33d a408 3abe
000000b0: ce4e 6c3d 927b 743c 3846 4fbe 52f8 7b3e
000000c0: 8387 48bd 4128 7b3b 4c17 323c 8dc4 fbbd
000000d0: b224 ff3d 2242 263e ee7b 38bd be8e 573e
000000e0: d86b de3d 3033 5abd 10b4 2cbe e3fa 473e
000000f0: 44b7 0abe d612 9c3d 7e84 f53d 3be8 a8bd
00000100: a84a debc eb10 113e eb4a d03d 0ce5 88bd
00000110: 5a93 e53d a3fc 40be c422 c8bd 35e8 453e
00000120: ed00 dfbd ef66 1fbe ac42 24be d945 0a3e
00000130: 74d6 3bbe 39dd 18be 580d 063d b069 1cbe
00000140: 54c7 303c 0fcb b6bd 1d89 1abe 5c71 da3d
00000150: 11da 26be 10b2 67bd dd3d 193c 9c25 0ebe
00000160: 4476 073d 34d0 9f3d 7e55 e13d 3a22 14be
00000170: 8c01 4e3e b639 233d 30e2 e73c 999e c7bd
00000180: dba8 35bd 00bf d83d 01f2 6b3c 79b9 6ebe
00000190: b0e8 4c3d 19df c2bd 273e fa3c 0ff5 9c3e
000001a0: 42cd 39bd eedf 07be 5e18 213c 7220 7b3e
000001b0: 615f 6dbe 1152 b1bd 1e65 913e 76fb 19be
000001c0: 4501 3c3e b0f7 a7bd a272 77be 12b3 d63d
000001d0: ee52 4dbf b9b1 cbbe bec3 41be 11d5 10bd
000001e0: f39a b2bd ed0b 7cbb 52cd 903d d8fd e73c
000001f0: 5225 243b c3d8 fabc 1114 523e ce23 d7bd
00000200: 1d4f edbd 5f4b 8cbb 05d7 aa3d 174d a43c
00000210: 452f f9bd 1a5e b4bd c0a8 373e d359 c8bd
00000220: 178a 073d 3a09 58bd 04dc 85bd 10af 2abe
00000230: 1a42 a93a 0824 46be 69cc 4fbd fea8 543d
00000240: 66e7 f03d bfea 493e fa3a 9a3c e71a 25be
00000250: fc31 8fbd f5be 81be 9493 0b3e 24e5 9b3d
00000260: a6b1 f13d 4431 833d b929 873c c0fd 183d
00000270: d7e1 0abd 74e6 2ebe 2a4e 33be 5474 bc3d
00000280: 86dc 32bc 5fcc 00be b2da 2dbc c963 c73d
00000290: 627a 11be 044a 343e b6d2 4d3e cc6e 27be
000002a0: f9d1 30be 58d4 18be 580f 1d3d 6ad6 5cbd
000002b0: 35f4 04be 355c f6bd 211c 91be 1c07 9a3e
000002c0: 72d9 353e a3de 763d d913 f13c 8248 253e
000002d0: 7ebb 043e 30e6 f53d 6881 aebd 3e70 563d
000002e0: ccf6 513e d6ba 36be 3ce1 f53c 7349 6b3e
000002f0: b01b 8ebe fa35 423d eca2 503c 70c0 3d3e
00000300: 3f2b 4fbe 692e 903e c98f 1f3e a77a 85bd
00000310: d574 6b3e a53d bd3c bf87 55be 31fc 71bd
00000320: dcf8 c73d e5fa 9abc 2273 4bbe ab83 8c3c
00000330: 55f0 ca3d 41d6 583e 3c6e 303e 6c54 af3d
00000340: 4750 e5bd e98f 49be 706a e7bc cadd e0bc
00000350: 46ab 87bd 8301 043f 6b81 20bd da9b b03b
00000360: 77b8 98bd 0b48 883d 3566 853e d466 14be
00000370: bc9a 01bc 6be3 76be 0478 363e 2631 bcbc
00000380: 4c2f 193e 01b2 47bd 6a00 443e ed06 fd3c
00000390: ef02 50be 4397 b8bd 164a 3c3e 1646 903c
000003a0: cd58 11bd 713e d73c 8c66 65bd 8caf cd3c
000003b0: 0b88 cf3d 3c7c 2cbd 3547 d63c dfaa 65bc
000003c0: fa37 233c 26d2 163d 18e3 fa3d 2c4e 2d3d
000003d0: 245e 0c3f c7c4 a43e d80a 2abe 0648 22be
000003e0: baa0 27be 78ee b73d aa15 91bd 123f 1dbe
000003f0: 26dc 5e3d 6b44 ad3d 636c 6abd f1ab 1d3c
-0.0798006 -0.115679234 -0.004380908 -0.05908952 0.16756465 0.09895853 0.06694401 -0.0033074587
-0.08390681 -0.16468325 0.028430577 0.036413047 0.030226005 0.05449414 0.0788615 0.25957474
0.22238 -0.17520937 -0.06311662 0.17805503 0.060865074 -0.138886 0.010589761 0.09134984
-0.13041176 0.022669293 -0.1559153 0.028288998 -0.13050061 -0.06841336 0.06844974 0.24531956
0.23691213 0.08522161 -0.14998557 0.1924296 -0.14075616 0.23357625 0.17718872 -0.3234473
-0.15967017 -0.10926166 0.10317814 -0.18167359 0.05769234 0.01492204 -0.2024163 0.24606445
-0.04895736 0.0038323554 0.010869812 -0.122933485 0.12458171 0.16236165 -0.045040064 0.21050546
0.10860413 -0.053271472 -0.16865563 0.195293 -0.13546473 0.0762078 0.119881615 -0.082474194
-0.027135208 0.1416661 0.101705395 -0.06684312 0.11209746 -0.18846373 -0.09772256 0.19326861
-0.108888485 -0.1556661 -0.16041058 0.13503207 -0.18343526 -0.1492814 0.03272757 -0.15274692
0.010789711 -0.08925449 -0.15091367 0.10666153 -0.16294123 -0.056566298 0.009353128 -0.13881534
0.03307177 0.078033835 0.110026345 -0.14466181 0.20117778 0.03984996 0.028306097 -0.09747047
-0.044350486 0.10583305 0.01440096 -0.2331294 0.050026596 -0.09515209 0.030547215 0.30655715
-0.045361765 -0.13269016 0.00983247 0.24524096 -0.23180915 -0.08658231 0.2839746 -0.15037331
0.1835986 -0.082015395 -0.24164823 0.10483374 -0.80204666 -0.3978403 -0.18922326 -0.035359446
-0.087209605 -0.0038459257 0.07070412 0.028319284 0.0025046659 -0.030620938 0.20515467 -0.10504876
-0.11587355 -0.004281446 0.08341793 0.02005629 -0.12167219 -0.08807011 0.17935467 -0.097827576
0.033090677 -0.052743174 -0.06536105 -0.16668344 0.0012913377 -0.19349682 -0.05073205 0.051918976
0.11762886 0.19718455 0.01882695 -0.16123544 -0.06991956 -0.25341 0.13630515 0.076120645
0.11801462 0.06405881 0.016499387 0.03735137 -0.033906784 -0.17080098 -0.17510286 0.09201875
-0.010916835 -0.12577961 -0.010611223 0.097358294 -0.14206842 0.1760636 0.20099911 -0.1635086
-0.17267598 -0.14924753 0.03834471 -0.05391542 -0.12983783 -0.12029306 -0.28341773 0.3008355
0.1775873 0.060270917 0.02942841 0.16140941 0.12962148 0.120067954 -0.08520776 0.052353136
0.20504302 -0.1784471 0.030014627 0.22977237 -0.277555 0.047414757 0.012734156 0.1853044
-0.20231341 0.28160408 0.15582193 -0.06517535 0.22993787 0.023100683 -0.20852564 -0.0590784
0.09764263 -0.018918464 -0.19868138 0.017152628 0.09909121 0.21175481 0.17229551 0.08561024
-0.11196952 -0.19683804 -0.028248996 -0.027449507 -0.06624465 0.51564807 -0.039185923 0.0053896727
-0.07457059 0.06654366 0.2605454 -0.14492351 -0.007910427 -0.2411019 0.1781922 -0.022972655
0.14959449 -0.048753742 0.19140783 0.030887092 -0.20313619 -0.09013226 0.18387637 0.017611545
-0.035485078 0.026274892 -0.056006 0.025108121 0.1013337 -0.042110667 0.026157001 -0.01401779
0.009962076 0.036821507 0.12250346 0.04231088 0.5483115 0.3218138 -0.16605699 -0.15847787
-0.16369906 0.08981031 -0.0708421 -0.1535609 0.05440917 0.08460315 -0.057232272 0.009623514

wavenet.dilated_convs.2.bias f4 [32]
00000000: f1e5 d63d a462 6ebd e004 91bd 1d4a 33be
00000010: a996 34be 1e52 2c3d 5095 853d 963b d83b
00000020: 1bff 16be 5a63 ddbd d2c0 ea3c f163 0abe
00000030: 3fe0 b43d cb8d 753e 785c 093e 8873 b2bc
00000040: a8a6 eabd 5d6f 243f 0927 2cbe 440c c4bd
00000050: 86bf b33d 2c8d 7bbc 94d4 79be 9dc1 ebbe
00000060: 1aa7 07be 274f 24be 14c3 5fbe 56bb 1abe
00000070: 72d7 91bd 1245 f7be ebb8 55be 9515 68be
0.104930766 -0.05819954 -0.07081008 -0.1750874 -0.17635597 0.0420705 0.0652262 0.0065989
-0.14745753 -0.108099654 0.028656397 -0.13514687 0.08831834 0.23979871 0.1341418 -0.021783605
-0.114575684 0.64232427 -0.16811766 -0.09572652 0.087767646 -0.015353482 -0.24397498 -0.46046153
-0.13247338 -0.16045819 -0.2185176 -0.15110525 -0.07121171 -0.48294884 -0.20871322 -0.22664483

wavenet.dilated_convs.3.weight f4 [32, 16, 2]
00000000: c845 15be f49d 913d 7580 5fbd 5907 96bd
00000010: ee36 383e 94a5 febd c37b 6b3e 9acb 00be
00000020: 8554 cdbd fb85 143e 1b37 f0bd 985a 573e
00000030: 40d3 2e3e 6f95 793e faa7 09be 7d7c 1a3c
00000040: ef2b 143e 9607 e7bd abae 383d 83c4 6f3d
00000050: 1c58 0cbe c434 e23d 5c9e 923d 3483 aabd
00000060: 40d5 33be e2c7 09bb f27d 083e 0d1e 6bbc
00000070: 0a92 1dbd f39a 0f3d bbff e6bd b949 343d
00000080: e73d 923d ffef 02be 9cac 31be ff01 32be
00000090: ae95 323d f2b0 df3c 9f3e 09be ff5c c03d
000000a0: fa5c 9d3d 3d6c 20bd 0bb2 2a3d 93b5 84bd
000000b0: 4b3c b1bd 9c2c 223c 6069 943e 7dc0 24be
000000c0: 92d2 3f3e d835 463d 4d03 ef3d 2ee5 0dbe
000000d0: 94a5 3ebe 6be1 aebe 0f21 2f3e 4c0e 6e3b
000000e0: cc3e 363e e6b3 4a3e abc3 663e d1bb fcbc
000000f0: fe90 09bc 8d32 88bd e035 213e fcb1 853b
00000100: ec31 173e 252f ccbd d1ae 3abc b36a f33d
00000110: d635 8cbe 46a4 e8bc f609 4b3e 10ff e83b
00000120: 5ff9 c4bd 49cb 0d3e 935c 73bd 01cd 72be
00000130: 0956 19be 328b a23c 8871 8ebe cb79 d3bd
00000140: 303d 77be 6ae6 d93a 2c6e 153e c61c 92bd
00000150: e7e3 513c b985 453e 6caa 853d 050b 1a3e
00000160: 4829 28be 46be 00be 4c97 0bbe df24 343c
00000170: 7b33 133e 11b6 023e 54c1 a9bd bd2c 713d
00000180: 3ea3 90be df8d f1bd f92c 41be a290 74be
00000190: ef0e ab3d a620 0bbe 268e 5d3e 449c 5fbe
000001a0: ef4d a5bd 680a 98bd b9fc f2bd 8078 533c
000001b0: ad0e e7bb 6dad 143e 9f1b 573d a152 7dbd
000001c0: 9320 a43e 4955 f8bd 21e7 5cbe 3d1e 0b3e
000001d0: 4a5e a5be e59c 9bbd 0f53 39be f631 333e
000001e0: b45c 643e a9b8 6f3e cda6 2a3e 2aa7 6b3e
000001f0: 05f3 09be 5eee 1ebe 9f16 adbd 4f20 2a3e
00000200: e767 3e3e ec84 ab3c a374 27be 1b45 fd3d
00000210: 5627 31be 387e 103d 9d11 6f3e 9d75 83bd
00000220: ad94 d0bd 1173 aebd 5b0f 633e f2ee 20bc
00000230: ad22 d7bd 44e2 053d 77c9 64bc 1b75 db3d
00000240: ce7d 35be b2eb bcbd a876 8fbd 536b 9d3d
00000250: 5157 383e 2273 123e 141a 06be f27b 9e3d
00000260: efb0 cb3d a447 4abe 8317 04be 61cc b13c
00000270: 0cbb e43c fadc 5e3e fcf1 d5bd db12 e0bd
00000280: 9bad 223e 2057 46be 55a4 b83d 0a94 66bd
00000290: 5ecc 87bc babc 83bd 7f7a 1ebe 8832 033d
000002a0: a53e a6bd 0c3b de3d 79ba a63d a7d2 febd
000002b0: e72d 2cbe c96c 54be 0267 183d 3324 9abd
000002c0: 80b5 cabd b720 96bd 54a9 a5bd e18a 46bc
000002d0: 85f8 513e dcab 213d 0a72 5bbe f204 2d3e
000002e0: 7139 b93b a065 88bd 628e 29be 653b c3bd
000002f0: d3c4 003e f16d 113e f0d7 4ebe 3988 453e
00000300: a237 1f3e 9a00 81bd 24f1 853c cf99 9e3d
00000310: e30a c0bb d818 42bd ac23 b4bd 7614 c63c
00000320: 7d7e 123e 13b5 d53d 349a 4d3e 5ea6 0c3d
00000330: 282c b8bd 5df1 94bd 61fb 65be e793 0d3e
00000340: 7b95 37be 5083 1d3d 74b0 323d 925f b7bd
00000350: 7819 f83d aa75 aa3e 6005 163e f0ff e2bc
00000360: 8f7e 9c3d 9689 06be db69 19be c630 4a3e
00000370: b37a 4c3d b67c 173e dffc 243d a717 df3d
00000380: 9b29 ea3c fccc f83c 167e d23d bdfe 42be
00000390: 446c aa3e e583 1f3e 065e cabd d76b aabd
000003a0: 2a9e 2fbe f5d5 38be 5767 d7bd 752a ecba
000003b0: 2597 6e3d 913f ec3c 42cb 8a3c 44bd 1c3e
000003c0: 8a93 9b3e c3cf 8a3e fc17 4d3d 80ca 233c
000003d0: 53a8 01bc 645d 973c 0348 973d 67d8 b73d
000003e0: 082b 07be 265f edbd 582c a73d 945c 9e3d
000003f0: c011 3b3d bb02 1e3d 1359 da3d c3a0 fdbd
-0.145774 0.07110205 -0.054565866 -0.0732562 0.17989704 -0.12433925 0.2299643 -0.12577668
-0.100258864 0.14504234 -0.117292605 0.21030653 0.17072773 0.2437341 -0.13442984 0.009429094
0.14469884 -0.11280744 0.04508845 0.058537018 -0.13705486 0.110452205 0.07159111 -0.08325806
-0.17561817 -0.002102368 0.13329294 -0.014350426 -0.03846935 0.03505988 -0.112792455 0.04401562
0.07140713 -0.12786864 -0.17351002 -0.17383574 0.043599777 0.027306054 -0.13402794 0.093927376
0.076837495 -0.039165724 0.0416737 -0.06479945 -0.08654078 0.009898331 0.28986645 -0.16089053
0.1873267 0.048391193 0.116705514 -0.13856956 -0.1861785 -0.34156355 0.17102455 0.003632444
0.17797393 0.19795188 0.22535579 -0.030851277 -0.008396385 -0.06650267 0.15743208 0.0040800553
0.14765137 -0.099699296 -0.011394219 0.11885586 -0.27384824 -0.028398644 0.19828019 0.007110484
-0.09617876 0.13847078 -0.059414458 -0.23711015 -0.14974226 0.019841764 -0.27820992 -0.103259645
-0.24144435 0.0016624455 0.14592808 -0.07134394 0.012810684 0.19289292 0.06526646 0.15043266
-0.16421998 -0.12572584 -0.13631934 0.010995119 0.14375107 0.12764765 -0.082888275 0.058880556
-0.28249544 -0.11794638 -0.18864812 -0.23883298 0.08352458 -0.13586673 0.21636257 -0.21836954
-0.08071505 -0.0742386 -0.11864609 0.012907147 -0.00705131 0.14519282 0.052516576 -0.06184638
0.32056102 -0.12125642 -0.21572544 0.13585754 -0.322985 -0.07598285 -0.1809809 0.17499527
0.22300988 0.23410286 0.16665192 0.23012987 -0.13471611 -0.15520617 -0.0845158 0.16613887
0.18594323 0.020937406 -0.16353087 0.123666964 -0.17300162 0.03527662 0.23346563 -0.06418917
-0.10184608 -0.08518041 0.22173826 -0.009822594 -0.10504661 0.032686487 -0.013964049 0.107156955
-0.17723772 -0.09224643 -0.07005054 0.07686486 0.18002059 0.14301732 -0.13095886 0.077384844
0.09945857 -0.19753891 -0.12899594 0.0217039 0.027921222 0.21763983 -0.104465455 -0.109410964
0.15886538 -0.19369173 0.09015719 -0.056293525 -0.016576942 -0.06432481 -0.15476416 0.032030612
-0.08117417 0.10851106 0.081410356 -0.124425225 -0.16814385 -0.20744623 0.03720761 -0.07526436
-0.098979 -0.073304586 -0.080889374 -0.012118072 0.20504959 0.03947054 -0.21430221 0.16896418
0.0056525995 -0.066600084 -0.16558221 -0.09532813 0.12575082 0.14202096 -0.20199561 0.19290246
0.15548566 -0.06298943 0.016350336 0.077441804 -0.005860673 -0.047386974 -0.08795866 0.024179678
0.14306064 0.10434928 0.20078355 0.034338348 -0.08992797 -0.07272599 -0.22459175 0.13825952
-0.17928116 0.038455307 0.04362531 -0.089537755 0.12114233 0.33292896 0.14650488 -0.027709931
0.07641327 -0.13138422 -0.14981787 0.19745168 0.049921703 0.14793667 0.04028022 0.10893183
0.028584292 0.030371182 0.10277955 -0.19042487 0.33285725 0.15577658 -0.09881215 -0.0832135
-0.17150179 -0.18050368 -0.105177574 -0.0018018024 0.05824961 0.028838905 0.016942624 0.15306574
0.30386 0.27111635 0.0500717 0.00999701 -0.007913667 0.01847715 0.07386782 0.08976822
-0.13200009 -0.11590414 0.08162755 0.077325016 0.045671225 0.038576823 0.10661521 -0.123841785

wavenet.dilated_convs.3.bias f4 [32]
00000000: c8d8 73bb 5cf5 813d 9b13 1cbd 5a62 c4bd
00000010: ea57 e43d 308e 43bd 8a83 1b3e d10d a0bd
00000020: 32f5 e43d b828 d2bd 1461 8fbd 2b45 693d
00000030: 0ca5 763d d04f 823d 3cde 99bd d04b e43d
00000040: ea0e 22be f8dc 7abc f93a abbe 69a4 913e
00000050: 702f 263e ed80 a7be 77c1 c4bd 5fc1 18be
00000060: f6e9 13be fa98 c53e 2027 28bf 86fb 03be
00000070: 18a7 603d 5016 9bbe 41f8 aabe 12bd 27bd
-0.003720807 0.06345627 -0.038104635 -0.095890716 0.11149581 -0.047743022 0.15186897 -0.07815135
0.1117958 -0.10261673 -0.07000938 0.05695073 0.060215995 0.06362879 -0.07513091 0.111472726
-0.15826002 -0.015311472 -0.3344343 0.28445747 0.16229033 -0.3271555 -0.09607213 -0.14917515
-0.14444718 0.38593274 -0.656847 -0.12888917 0.054846853 -0.3029046 -0.33392528 -0.040951796

wavenet.dilated_convs.4.weight f4 [32, 16, 2]
00000000: 65ca 103e 5800 dbbd 3c2b c2be 8f4a 003e
00000010: a82b 3a3e b882 793d 889c 1ebd 65fd 803d
00000020: 2b6f c4bd 0f75 253a f69c 263d 3bb0 1abe
00000030: ac08 583d d3bb ed3d fb80 d53d 35e9 33bd
00000040: f19a cfbc b318 a63b 9e9a 473e b515 0cbe
00000050: f499 1e3d b847 be3d 155e eebd 634c ac3c
00000060: 9c6a 813e 10e4 853d 3ee2 9b3d 451d 23bc
00000070: 3390 46be 5d18 90ba 9eac b63d fc0e e53d
00000080: c6e0 15be 5a86 123e 40de 6b3e 2c8a fabd
00000090: eb5a 35bc 4e1c d5bd a5a7 c6bd 5c2e 133e
000000a0: 657c 113e 8a5b b8bc 469f 5ebe b60a 263e
000000b0: 6e45 b03d 17ae 513d c1f0 8c3e ff06 e7bd
000000c0: 18be 4b3d 77a5 b6bc 430c 25be c489 623d
000000d0: 326d a83e 6028 533e 26d1 b8bd 6d44 ffbd
000000e0: 1e4a 49be a911 7d3e 2bfc b73d f991 1dbe
000000f0: 8238 2e3e b58f ac3d 00f5 0b3e 82e7 0cbe
00000100: 8398 c43d 6134 2dbe ac16 bebd 4ba4 823e
00000110: 0e49 403b 024a 503e 7e45 fd3d c894 6bbe
00000120: b725 593d 2bdb 863d 62ec db3c 3dfd b53c
00000130: 6f76 bfbd f6df 463d 0a71 1e3d e008 0b3d
00000140: 84a8 10be 5ae9 6e3d c123 133e b1ca 733d
00000150: 39ea 68be a599 ecbd 15bd 0fbd a3d8 bc3d
00000160: 26b3 3bbd 80b9 dabd f1d5 8dbe 0a98 26be
00000170: 11d9 5ebe ac87 313e bdbc 2fbd 11f6 533d
00000180: 7629 3ebe 1e70 883c 3c17 04be e2d8 a8be
00000190: a359 aa3d 6075 2bbe 4403 08be e857 fe3c
000001a0: 9ba8 62bd eafb eabd 7b81 6c3d 033f e5bd
000001b0: 0382 6cbe 30ef 363d c00d aabd 8cfc 9ebe
000001c0: 3a58 eb3d b89e 8ebd 3b3d bdbd d9f1 053e
000001d0: 2c51 f6bc 45b8 f03d ca08 5a3e 68d6 7abd
000001e0: d99d a63d 5bd9 94bd a63e 0a3e da04 883e
000001f0: c2eb dc3b b359 3ebd c86c b3bc bc98 2d3e
00000200: 068f bebd 3761 103e 4cd9 083e c331 fabe
00000210: d5cb bf3d 1f80 1c3e 3c4f 68bd dbfd 41be
00000220: d868 5fbe 9215 393e 9855 e9bd 9bc0 603d
00000230: b99d b0be 3c81 7a3e 66e2 af3d 8e97 253c
00000240: 0a22 983c 8139 9abd e667 eabe 8f98 d6bd
00000250: 1a7c 973d 5d75 42bd 956d 44be a66d d23c
00000260: e9f7 10be 94d0 ce3d c85f aabd a74c 873c
00000270: fcf7 963e 2369 4e3d 6ea1 6bbd 1fd3 4f3d
00000280: c98c 3cbd 3c86 843d 0912 623e 028d ea3d
00000290: 9fda a2bc 3a16 6dbe 9efe d9bc de13 09be
000002a0: f346 373e b85d 563e 6a2c 6fbe b40e ff3d
000002b0: 000c 8fbd d79f e03d cdb6 7d3d d2eb 8abe
000002c0: a810 253e 3bd7 d7be 3ed8 4abc 2d46 ddbd
000002d0: f173 003e 7a38 043e 6cdd f83c eff6 89be
000002e0: 0b15 92be c00f 203e 932f a03e 9c0f 1abe
000002f0: 7543 fe3d 79e4 9abd 2da2 983d e938 a43d
00000300: b340 f33c be3c 20be 8c81 d5bd f18d 083e
00000310: 502b 1d3e e2d4 23be ed28 773c e3bc 283e
00000320: 816c 393e eaeb 59be 32a4 cb3c d317 29be
00000330: 8d74 b73d ba77 74bc 7a4b 04be 0e44 92bd
00000340: 2ff7 663c 143f 54bd c3a1 633e f369 d9bd
00000350: 93be 00be 121a 4e3d a1c6 1c3d 7d6c 8e3a
00000360: 9e47 02bd 104e e2bd 7540 f6bd a973 d43d
00000370: 5f15 18be 1517 053e 7321 0a3e eae9 53bd
00000380: 3e41 88bd e765 9c3d 7d64 803d 5b32 ac3d
00000390: 9c58 873e 9709 06be bfdb 1ebe 9bc4 3e3e
000003a0: f068 2f3d 6f8b 38bd 1833 cebd 8076 df3d
000003b0: 4ee7 763e 9235 5e3d 2fa0 b2bd 6a15 17be
000003c0: 85de cabd ea76 793d 7e0f ab3c 53e0 2bbe
000003d0: 8c84 2dbe 33bf 05bc 2b5c d73d 026e 243d
000003e0: fd95 00be a0a1 d83d e2e3 72bd 6199 c73d
000003f0: 9863 ccbc 6b0c 25be 0e1a 95bc ebb5 1f3d
0.14139707 -0.10693425 -0.3792361 0.12528442 0.18180716 0.06091568 -0.0387235 0.06298331
-0.09591516 0.00063116936 0.040677033 -0.15106289 0.052742645 0.1160809 0.10424992 -0.043923575
-0.025342437 0.0050688623 0.19492576 -0.13680156 0.03872104 0.09291023 -0.116390385 0.021032518
0.2527665 0.0653764 0.07611512 -0.009955709 -0.19390945 -0.0010993589 0.08919643 0.11184499
-0.14636526 0.14309064 0.23034 -0.122333854 -0.01106904 -0.10405789 -0.096999444 0.14373153
0.14207609 -0.022504587 -0.21740445 0.16215023 0.08606993 0.051191416 0.2752743 -0.11280631
0.049741834 -0.022295697 -0.16117959 0.055307165 0.3289581 0.2062087 -0.09024267 -0.12464223
-0.1965718 0.24713768 0.08983644 -0.15387715 0.17013744 0.084258474 0.13667679 -0.13760188
0.09599402 -0.16914512 -0.09281668 0.2551597 0.002934042 0.20340732 0.1236677 -0.23005974
0.053014483 0.06584772 0.026846115 0.02221548 -0.09348761 0.04855343 0.03868202 0.03394401
-0.14126784 0.05832801 0.14369108 0.059519473 -0.22745599 -0.11552743 -0.035092432 0.09221008
-0.045825146 -0.106799126 -0.27702287 -0.16268936 -0.21762492 0.17336911 -0.042904604 0.05174834
-0.18570504 0.016655024 -0.12899488 -0.32977968 0.08317878 -0.16743994 -0.13282496 0.031047776
-0.055336576 -0.1147383 0.05774067 -0.11193659 -0.2309647 0.0446617 -0.08303404 -0.31052053
0.11491437 -0.06963867 -0.092401944 0.13080539 -0.030068003 0.117538966 0.21292415 -0.06123963
0.08135576 -0.0726802 0.13500461 0.265662 0.0067419717 -0.046472263 -0.021902457 0.16952795
-0.09304623 0.14099585 0.13364142 -0.4886609 0.0936505 0.1528325 -0.05671619 -0.18944494
-0.21817338 0.18074635 -0.11393279 0.054871183 -0.34495333 0.24463362 0.08588104 0.010106934
0.018570919 -0.07530499 -0.45782393 -0.10478317 0.07396717 -0.047475208 -0.19182427 0.02568705
-0.1415707 0.10098377 -0.0831905 0.016516043 0.29486072 0.050393235 -0.057527 0.05073845
-0.0460327 0.06470916 0.22077192 0.11452676 -0.019879637 -0.2315301 -0.026610669 -0.13386485
0.17898159 0.20934188 -0.23356786 0.12453976 -0.06984711 0.10967987 0.06194191 -0.27133042
0.16119635 -0.42156395 -0.012380658 -0.108044006 0.12544228 0.12912169 0.03037902 -0.26946208
-0.2853168 0.15631008 0.31286296 -0.15045017 0.1241521 -0.07563109 0.074528076 0.08018667
0.029693937 -0.15648171 -0.104251 0.13335396 0.15348554 -0.15999177 0.015085441 0.16478305
0.18107797 -0.212814 0.024858568 -0.16512994 0.08957777 -0.014921123 -0.12919417 -0.07141887
0.014097019 -0.05181797 0.22229676 -0.10615911 -0.12572698 0.05031783 0.038275365 0.0010866072
-0.03180658 -0.110500455 -0.12024013 0.10373623 -0.14851902 0.12997086 0.13489322 -0.05173675
-0.06653069 0.07636624 0.062691666 0.08408042 0.2643479 -0.13089596 -0.15513514 0.18629687
0.042824686 -0.04505485 -0.10068339 0.10911274 0.24111673 0.054250307 -0.08721959 -0.14754263
-0.099057235 0.06090442 0.02088141 -0.16784792 -0.16945094 -0.008163261 0.105156265 0.040143974
-0.12557216 0.105777025 -0.059299357 0.097460516 -0.024949834 -0.16118018 -0.0182009 0.03899185

wavenet.dilated_convs.4.bias f4 [32]
00000000: ca68 2e3e 43e2 87bd 154c 153e 6e51 31bd
00000010: ae00 d8bc 5abc 36be 8af1 f73b 0a78 39bd
00000020: 4749 063d 1d46 9dbd e37b 41bd 3219 c5bd
00000030: 169c 15be 5b37 2a3d 4029 b6bc 03f0 06bd
00000040: cc5a 8bbe 0e2d 45be eafc 77be 0525 1f3d
00000050: feab b5bd d085 103e 3a34 33bf c341 0abe
00000060: 0cfe 9cbe 3825 acbb ea0f a23d 604c cabd
00000070: b819 bbbe c242 64bc c846 0bbe 4baf c63d
0.17032161 -0.06634953 0.14579804 -0.043290548 -0.026367512 -0.17845288 0.0075666355 -0.045280494
0.032784726 -0.07679389 -0.04723729 -0.09623946 -0.14610323 0.041556697 -0.022236466 -0.032943737
-0.2721771 -0.19255468 -0.24217573 0.038853664 -0.088706955 0.14113545 -0.70001566 -0.13501649
-0.30662572 -0.0052534603 0.079131916 -0.098778486 -0.3654306 -0.013931932 -0.1360122 0.09701403

wavenet.dilated_convs.5.weight f4 [32, 16, 2]
00000000: ce97 e4bd 3bde d03d 430d 4e3e 8325 1c3c
00000010: d6db 88bb a497 d7bd a944 fabd 5d16 783e
00000020: 8c92 af3d 81d1 543c 989d 9abd 1b6b 4a3e
00000030: d1b0 333d 8e48 ff3d ad5c fb3d f502 0b3e
00000040: d46d 94bd e619 d23c 0cf6 123e 2d0c 93bd
00000050: c9f0 83bd b114 75be 2a68 393e 22ba 18be
00000060: 51d5 83bb 5366 e0bd 9a54 973d d385 913d
00000070: f697 463e 738c d63d 6b7c 123e bf9c 7abc
00000080: f6ba 203e 0375 f5bd ab50 4bbd c41c 6e3e
00000090: 385e a83d 669c 953c df6b a5be 3499 073d
000000a0: e862 413e efbb e5bd 0bff 113d 2e88 bb3d
000000b0: 7297 863e 7265 2cbe 5cd4 303e 89e8 533d
000000c0: 9601 87be 66e3 5a3e 91fd 5d3e ced7 91bd
000000d0: d168 92be 619f a93c b638 043e 4d8b 0dbe
000000e0: 3930 043e 5392 13be f07f 163e 62f9 f63c
000000f0: c8fa 083e 5050 b83d 5632 953d efdc 563d
00000100: 6a6a 8c3d a05f 313c 299d 1bbd 2783 443d
00000110: 669a e03d c31e 36be 0dd1 4a3e f47a 8bbd
00000120: 0e0f c13c ca35 7ebd 4918 d43d 7892 8bbd
00000130: 7fe2 1e3d 7e81 ee3c 0a8f 3e3e 75df 143d
00000140: 13be 0d3e 7a6b 553d c598 a43e ce71 90bd
00000150: 2261 6b3d 0140 afbc 9628 693d 56c3 e23d
00000160: 46b6 51be 0985 d33e 63df a73d de87 79be
00000170: 3352 7cbe d5ae 44be c917 a3be f7d6 113e
00000180: ce0e 39be 0e2c f3bd 5826 4b3e 754e 583e
00000190: 5b18 b43e 5b2b cbbc d644 b63e 01e5 e9bc
000001a0: c963 04bf 1b03 543d 5301 843c ec11 16be
000001b0: 36ec 403e 16c2 313e f775 9a3e 0248 883c
000001c0: c016 373f 2945 6abd c8eb 90bb bae7 4cbc
000001d0: 3341 f4bd 059e b43d ebfa 663e 6506 b23d
000001e0: 70cf 16bf 0365 493d 9022 8cbc 7d3d 3f3d
000001f0: 655f dbbe ee38 9d3d 09d1 e1be be6f 113e
00000200: 4450 74bd 5b42 e63d 558f 033e d220 323d
00000210: 33e4 4ebe 69d2 983d a38f 053e 2cf6 c83d
00000220: 1d47 1cbe 4d8b 3bbd ce22 cc3d 374a d83d
00000230: bd7e 9cbd 2b18 663e 82ad 2e3e a0a4 c73d
00000240: 5460 413e 18c9 f3bc 9c79 76be e85c 97bd
00000250: 4c5e 1b3e 0282 643d cd5b 20be ec1b 1dbd
00000260: 5e56 4f3d b207 403d ca24 3c3e b71e 003e
00000270: 378a 4c3e 9e8f 9cbc a1c5 efbc bb6c ccbd
00000280: 1a8a 523d b814 243b f23d afbd 29e0 e23d
00000290: 63dc 7bbe a488 ab3e 541b 343e 4235 e63d
000002a0: 5fe7 d93d 6f46 8ebe d3e9 543e 8a8e 4ebe
000002b0: cfc7 aa3d fcd8 033e 7385 ab3d 77bf a03e
000002c0: 3fed 7cbe c1b8 c53e 4f6e 2c3e bb68 4d3c
000002d0: 079e 33be eb37 06be bb05 3a3d 96f0 a03c
000002e0: 6ded 853e 942d 10be 19e5 803d 7baa f83d
000002f0: c206 cfbd 3ed6 a5bd ec2e d1bd 59ed aebd
00000300: ed8f 7f3d 9cbc bdbd b2ea f13d 2f21 2ebe
00000310: 2636 133d 65d0 d9bc 2249 923e c900 c3bc
00000320: 6a13 433d bca4 96bd 0a93 64bc 22a7 0ebe
00000330: 7302 e53d 5a53 993d 31e6 cd3d b069 e7bd
00000340: 4644 1dbe 7854 5b3d 18e9 b1bd ab90 2a3c
00000350: a223 43be 17db 083e 6db7 1bbe 0a11 56bd
00000360: f262 133d 4f4c 9e3d 3c86 82bd 2550 db3d
00000370: d628 333c 1903 ab3d b041 48be e125 e23d
00000380: 98ae 133c 01a5 903e 2544 5a3d 7b3c 24be
00000390: 5cca 1d39 e027 d23d 2cbb 9ebe c1cd 39bd
000003a0: 28ff bf3d 0a1c 11bd e36f c6bc 82a3 03be
000003b0: b81b 24be f956 cebb 85cc ca3c 0b46 b13c
000003c0: f89f 943d 1c87 79bd 7c92 1c3d d80c 6e3d
000003d0: 52a8 62be 72c8 2ebe ed4a 283d ae69 26bc
000003e0: c846 01be 37f7 4dbe b8c6 373e 37b2 36bd
000003f0: 8eee 0d3e b661 21be c077 eb3d 5143 1dbc
-0.11161767 0.10198637 0.20122246 0.009530428 -0.004176597 -0.1052697 -0.12220127 0.24227281
0.085728735 0.012989403 -0.0754959 0.1976742 0.043869797 0.124650106 0.12273536 0.13575347
-0.072475106 0.025647115 0.14351672 -0.07180057 -0.064424105 -0.23933674 0.18106142 -0.14914754
-0.004023232 -0.10957017 0.07389183 0.07105603 0.19393906 0.10476007 0.14305274 -0.01529616
0.1569632 -0.11985209 -0.049637478 0.2325316 0.08221096 0.018263053 -0.32308862 0.03310509
0.18885386 -0.11217486 0.03564362 0.091568336 0.2628742 -0.16835573 0.17268509 0.051735435
-0.26368397 0.21375808 0.21678759 -0.071212396 -0.28595594 0.02070588 0.12912259 -0.1382267
0.1290902 -0.14411287 0.14697242 0.030148212 0.13376915 0.089996934 0.072849914 0.052456792
0.06856234 0.010826021 -0.037991676 0.04797664 0.10966949 -0.17785172 0.19806309 -0.06810561
0.023566749 -0.062063016 0.103561945 -0.06815046 0.038790222 0.029114481 0.18609253 0.036345918
0.13842039 0.05210445 0.32147804 -0.070529565 0.05746568 -0.021392824 0.05692347 0.110724136
-0.20479688 0.41312435 0.081969045 -0.24368235 -0.24640732 -0.19207318 -0.31854084 0.14242159
-0.18072054 -0.11873637 0.19838846 0.21123679 0.35174832 -0.024800947 0.35599393 -0.02855158
-0.5171476 0.051760774 0.016113913 -0.14655274 0.18840107 0.17359194 0.30168125 0.016635899
0.7151909 -0.057194863 -0.0044226386 -0.01250642 -0.11926498 0.08819202 0.22556655 0.08692626
-0.58910275 0.049168598 -0.017106324 0.0466895 -0.42846218 0.07676874 -0.44104794 0.14202783
-0.05964686 0.11243125 0.12847646 0.04348833 -0.20204239 0.074620076 0.13043074 0.098125786
-0.15261503 -0.045787144 0.09967576 0.1056103 -0.07641361 0.22470157 0.17058375 0.097481966
0.18884403 -0.029758975 -0.24069828 -0.07390767 0.1517269 0.055788048 -0.15660019 -0.038356707
0.050619476 0.04688234 0.18373409 0.12511717 0.199746 -0.01911145 -0.029269041 -0.09981676
0.051401235 0.0025036763 -0.08556737 0.110779114 -0.2459579 0.33502686 0.1758855 0.11240627
0.10639834 -0.27788112 0.20792322 -0.20171562 0.08338892 0.12875742 0.08375063 0.31396076
-0.24699877 0.3861752 0.16838954 0.012537177 -0.17540751 -0.13107269 0.04541562 0.01964597
0.26157704 -0.14079887 0.06293697 0.121418916 -0.10108711 -0.08097504 -0.10214028 -0.08541364
0.062393118 -0.0926449 0.11812343 -0.17004846 0.03594031 -0.026588628 0.2857142 -0.023804085
0.047625937 -0.07355639 -0.0139510725 -0.13930944 0.11182108 0.07486601 0.10053671 -0.11299455
-0.15358075 0.053547353 -0.08687037 0.010410468 -0.19056562 0.13364826 -0.1520669 -0.052262343
0.035983033 0.077293985 -0.063732594 0.10708646 0.010935029 0.083502 -0.19556308 0.11042381
0.009013794 0.28250888 0.053287644 -0.16038696 0.00015048072 0.10261512 -0.31002176 -0.045362238
0.09374839 -0.03542713 -0.024223274 -0.12855342 -0.16026199 -0.006296989 0.024755726 0.021639844
0.07257074 -0.060919866 0.038225636 0.058117718 -0.22134522 -0.17068651 0.04108708 -0.010157032
-0.12624657 -0.20113836 0.17946899 -0.044603553 0.13860533 -0.1575993 0.1149745 -0.009598569

wavenet.dilated_convs.5.bias f4 [32]
00000000: 1b61 8c3d 18f0 243e 4a20 373e 6d60 293e
00000010: 0542 d8bd 1e18 3f3e 5dc4 05be fe93 ef3d
00000020: 7fd3 763c bc26 93bd 0d5a 9939 ada1 3ebd
00000030: d269 1f3e 5c26 a5bd f7ab dbbd d7a7 1d3c
00000040: 9fc9 a5be 3c99 0e3e 4657 d339 bf7f b63e
00000050: e31c fdbe 12f1 b13e d78e c4be 7270 95be
00000060: 6a1e 72be 358e 98be 8cc8 d03c e2da 5e3e
00000070: e39f e8bd c26c 2b3c 92ee 14be f691 36be
0.06854459 0.16107213 0.17883411 0.1654069 -0.10559467 0.18661544 -0.13063188 0.11698149
0.015065073 -0.07185122 0.00029249527 -0.046540905 0.15567711 -0.08063957 -0.10726159 0.009622536
-0.32380387 0.13925642 0.0004031008 0.35644338 -0.494361 0.34754235 -0.38390228 -0.2918735
-0.23644415 -0.29795995 0.025486253 0.21763185 -0.11358621 0.010462942 -0.14544132 -0.17829117

wavenet.dilated_convs.6.weight f4 [32, 16, 2]
00000000: 2a28 973d fbcd 0cbd 586b 893e 3be0 833d
00000010: 088d f63e 77bf 1fbe d899 e53e 9b30 50bb
00000020: 760b 7f3d 573f 4fbe baee b4bd f8b3 14bd
00000030: 5303 92bd 8c8d 323e 08cc 9d3e 40da 3bbd
00000040: d724 ccbd 8007 78bb 1ed0 b5bd f108 cb3c
00000050: 35ac 1fbe 5e6c 8fbd b726 463f a4c8 18be
00000060: e3d7 1bbd 6168 833d 4860 4bbe 34b1 e93d
00000070: 7224 c6be 65ec 6b3d 5cae 80be d27e a9bd
00000080: 4af7 b53c 45ee 1cbe b498 c9bc 75d5 123d
00000090: 4d5f 593e 0501 ac3d 6817 59be fc7a 5fbd
000000a0: 9fa8 a93c 8614 eb3d 1614 5abe efa6 17be
000000b0: 2c06 8fbc 107c fbbd 2507 6d3e e9a9 d2bd
000000c0: c126 06be d6b1 9c3d a890 493e 769e 37be
000000d0: e6f0 013f f2af 3dbe 3252 a6bc c690 803b
000000e0: 8fab 5a3e 0ef1 913d 3fb8 4ebd 4a86 743c
000000f0: 086b 00bf ba5d 10be 37ab b3bd 253b 33bd
00000100: 802a 19be a4de 58bb faba 43be 6c1a 9cbe
00000110: 3b65 ddbd d855 46bd 3bde 183e 0871 483d
00000120: 4cf9 f6bd 3460 febc 91ce 3f3d d568 9c3c
00000130: 0fe9 f73c df0a e0bd 52c4 44be 4b20 00bd
00000140: ced9 893d 1d3c 853c 401a 2a3d a9f5 70bc
00000150: 784d 5dbe 836d 103c 0c33 8e3d 23c8 243e
00000160: 86ec a9bd 16c2 f83d 48f4 cdbd 4050 a33d
00000170: da21 713e 6f5e 65be 85db 56be 556c 54bc
00000180: cce0 b5bc 2341 d23c a8c2 ab3e 866e 91be
00000190: 3344 36be 5053 9d3d aa0b 8bbc 6e73 8dbe
000001a0: 8a6c 60bc df2c d83d 5eb0 dfbe dfc1 27bd
000001b0: 56ff 8cbd c3b6 943d 1074 8abd bb30 993d
000001c0: 9896 9ebd a1c1 16bd 6891 12be 9e49 ef3d
000001d0: fd91 86bd 3ef1 113d 4df3 0a3d ab75 b3bd
000001e0: b59b 9d3d 913c 4fbe 34ea 003e 1b2f 233c
000001f0: 136f 53be a469 bb3c cfd9 053d c088 453e
00000200: 0fd6 14be ccd2 0c3e ff2e 883d d851 e43d
00000210: 6732 edbd 9033 89bb 9f28 36be 2650 c43d
00000220: fabb 763d dfe9 ad3b e1b9 55be ed6f 93bd
00000230: cf54 abbd 10a8 82bd c92d 843d 9dbd 263d
00000240: cecf b03e 903f 343d 8e69 663e 2b68 1a3d
00000250: b8c0 b33c 9159 83bd 5e8c 563d cce3 2b3e
00000260: 7462 3dbe 9bc4 34bd 0899 ecbc ba5d 22be
00000270: 2790 6e3e b16c 2abe 8f00 ea3d 45a3 7dbe
00000280: 3159 0bbe 8493 fa3d 8254 8a3e 7598 07be
00000290: 63ba cb3d 3ee4 07bd e8d4 43be 644a 20bc
000002a0: c2c7 1ebe c36e a1bd 46b4 86be 434d 4b3e
000002b0: 1e35 313e 0ce7 ebbc 9660 17be d9bf 45bc
000002c0: 66c1 0f3e d97e 023e 183f 21be d059 e43d
000002d0: dc1b 8e3e d7d0 22bd 7fe1 aa3c 96b9 963d
000002e0: 4a52 db3d 0e0f 923d 519f c03c 332b 19be
000002f0: 6848 90be 0731 ce3b e178 723e ce07 023e
00000300: 2eb0 04bc 8b6b c63d 1bee c2bd fdc4 843c
00000310: 4a18 a33c 5257 d1be 453f 7a3e 6fae abbe
00000320: 3a8d 24bd c6ad 163e e29a ad3e 3150 a5bb
00000330: 28c4 0d3d 24c4 82bd 47bb 183d faf2 69be
00000340: e9e7 aebd da47 0cbe 0f95 803c ce8d 5abd
00000350: d1e8 92be 80f4 c33e da0b 34be 5813 a3be
00000360: c7a7 6fbd 73dc 083e b8ca 00bd 0954 26be
00000370: bfa6 973b 8fca 733d 5f5a 09be e717 9e3e
00000380: 0277 44be aea2 ecbc 80d4 7d3e 33da 9dbe
00000390: 31b1 9b3d e14b f83d fad8 493e 3e62 46be
000003a0: 9b1e 4dbe 2cfc 96bd f593 e0bc 88dc 8f3d
000003b0: c31a bebe 8880 91bd 2a8f 83be acc7 c03d
000003c0: 28a3 973c 6cfe 063d 617f 43be 990b bdbd
000003d0: dc22 173d 7d98 f83b 55df bd3c 5f97 a0bc
000003e0: 5493 54be d16a 7fbd 3391 6ebd 4a52 f93d
000003f0: c27c 6c3e aadd 05ba 06f8 ccbc a49b 693d
0.073807076 -0.034376126 0.2683971 0.06439253 0.48154473 -0.15600382 0.44843936 -0.0031767252
0.06226679 -0.20239006 -0.08834596 -0.036304444 -0.0712954 0.17436808 0.30819726 -0.045862436
-0.09967964 -0.0037846267 -0.08877586 0.024784537 -0.15593036 -0.07003091 0.77402824 -0.14920288
-0.038047682 0.06416393 -0.19860947 0.11410752 -0.3869968 0.05759849 -0.25133026 -0.08276142
0.022212643 -0.15325268 -0.024608947 0.0358481 0.2122776 0.08398632 -0.21200335 -0.054560646
0.020710288 0.11478524 -0.21296725 -0.14809774 -0.017458998 -0.122795224 0.23147257 -0.10286314
-0.13100721 0.07651107 0.19684088 -0.17931542 0.50758207 -0.18524149 -0.020302866 0.0039235083
0.21354507 0.07126056 -0.05046868 0.014924595 -0.50163317 -0.14098254 -0.08772891 -0.043757576
-0.14957619 -0.0033091689 -0.19114295 -0.30488908 -0.10810324 -0.04842171 0.14928524 0.04893592
-0.12059268 -0.031051733 0.046827856 0.019092957 0.030262498 -0.109395735 -0.19215515 -0.031280797
0.06730996 0.016264016 0.04152894 -0.014707007 -0.21611583 0.008815172 0.0694333 0.16091971
-0.082970664 0.12146394 -0.100563586 0.07974291 0.2354807 -0.22399305 -0.20982178 -0.0129652815
-0.022201918 0.025665825 0.33546948 -0.28404635 -0.17799453 0.07681906 -0.016973335 -0.27627128
-0.013697753 0.105554335 -0.43689245 -0.040956374 -0.06884639 0.072614215 -0.067604184 0.07479998
-0.07743567 -0.036805753 -0.1431328 0.11683963 -0.06570814 0.035630457 0.033923436 -0.08762678
0.076957144 -0.20237948 0.12589341 0.009959961 -0.2064784 0.022877522 0.03267842 0.19290447
-0.14534782 0.13752288 0.06649589 0.11148423 -0.11581879 -0.004187055 -0.17788933 0.095855996
0.060237862 0.0053074206 -0.20871688 -0.071990825 -0.08365785 -0.06379712 0.06454045 0.040708173
0.34533542 0.04400593 0.22501203 0.037697 0.021942481 -0.06413568 0.05237996 0.16786116
-0.18494588 -0.04413281 -0.028881565 -0.15856066 0.23297177 -0.16643025 0.11425888 -0.24769314
-0.13608243 0.122351676 0.270176 -0.13241751 0.0994766 -0.033176653 -0.19124186 -0.009783361
-0.15505889 -0.07882454 -0.26309413 0.19853692 0.17305419 -0.028796695 -0.14782938 -0.012069666
0.1403862 0.12743701 -0.15746725 0.11149943 0.2775563 -0.039749946 0.020859478 0.073596165
0.10709055 0.07131778 0.023513468 -0.14957885 -0.28180242 0.0062924656 0.23678924 0.1269829
-0.008098645 0.09688481 -0.09518071 0.016207213 0.019909043 -0.40886933 0.24438198 -0.3353152
-0.040173747 0.14714727 0.3390723 -0.00504496 0.034610897 -0.06385067 0.037287977 -0.22846594
-0.08540327 -0.13699284 0.015696077 -0.05335789 -0.2869325 0.38272476 -0.17582646 -0.31850696
-0.058509614 0.13365345 -0.031443328 -0.16242994 0.004628032 0.059519347 -0.1341338 0.3087761
-0.19186023 -0.028886165 0.24788094 -0.30830535 0.07602156 0.12123848 0.19711676 -0.19373414
-0.20031206 -0.07372317 -0.027414301 0.07024485 -0.37129793 -0.071045935 -0.25695163 0.094130844
0.018510416 0.03295748 -0.1909156 -0.09230728 0.03689848 0.0075865374 0.023177782 -0.01960343
-0.20759326 -0.062357727 -0.05824394 0.121738985 0.23094466 -0.0005106578 -0.02502061 0.057033196

wavenet.dilated_convs.6.bias f4 [32]
00000000: f253 193e 5f25 72bd 809e 2dbe d491 c03d
00000010: d1a8 9cbb d195 35bd 8292 19be cf47 483d
00000020: cfe9 0cbb 976d 833b d0a7 643d 73f0 f53d
00000030: 4570 34bd 4c36 cebd 1c23 773d 4f55 153d
00000040: 9911 ce3e 1eb9 d0bd 850f 173e 19e9 32be
00000050: 5ad7 93bd aecc 1b3e 1946 783e 0a7b f8bd
00000060: e150 5bbd 8f45 82be aa50 8abe 41a0 d2bb
00000070: 7bda 80bd 34ab e3bd 87d9 40be afb1 6abe
0.14973429 -0.05911767 -0.16954994 0.094028145 -0.0047808667 -0.04433233 -0.14997295 0.048896607
-0.0021501665 0.004010867 0.0558241 0.12008753 -0.04405238 -0.1006895 0.060336217 0.03645831
0.402478 -0.10191558 0.14752014 -0.17471732 -0.072188094 0.15214798 0.2424549 -0.12132843
-0.05354393 -0.25443694 -0.27014667 -0.006427795 -0.06291672 -0.11116639 -0.1883298 -0.22919343
