ht1.ckpt (torch, 789468 bytes, 437 tensors)

wavenet.input_conv.weight f4 [16, 1, 1]
3.3961456 -2.7441308 -4.6648593 -3.5838215 0.013277267 -1.2512505 2.2686048 -0.99730635
0.8913312 -3.2736146 0.6691648 -0.012095427 3.8885243 -4.481397 0.9448601 -1.8185481
00000000: 735a 5940 d79f 2fc0 8746 95c0 555d 65c0
00000010: e588 593c fa28 a0bf d230 1140 784f 7fbf
00000020: 482e 643f e782 51c0 624e 2b3f e62b 46bc
00000030: 95dd 7840 9b67 8fc0 5ae2 713f 2fc6 e8bf

wavenet.input_conv.bias f4 [16]
-0.025997609 0.28586617 -0.45614257 -0.0074394434 0.047135208 0.08069396 -0.11885725 -0.0892338
-0.13750893 0.5658546 0.014285962 -0.0022261224 0.15102573 -0.32441944 -0.03476121 0.036972422
00000000: f0f8 d4bc 0d5d 923e 858b e9be 93c6 f3bb
00000010: d910 413d e042 a53d 6e6b f3bd 36c0 b6bd
00000020: 24cf 0cbe d9db 103f ab0f 6a3c 23e4 11bb
00000030: 7da6 1a3e 4e1a a6be c561 0ebd 6570 173d

wavenet.conv_layers.0.conv.weight f4 [32, 16, 3]
0.59188926 -0.33565256 -0.4911876 0.8860644 0.73233694 0.40154895 -1.2839965 -0.16882002
0.029931607 -0.6589667 0.3305343 0.8807373 1.148357 0.3321949 0.054189768 0.5784289
0.93643016 0.41944337 -0.10483063 -0.7806181 -0.44692352 -1.1698864 -0.19904341 -0.057803907
-1.0321962 -0.7405809 -0.13288128 1.1571444 0.62040895 0.45188755 0.89476824 0.07791237
-0.12967087 0.09492808 -0.23244192 -0.2159377 1.005457 0.2000208 -0.108812876 -1.1489884
-0.20785517 0.10765624 0.22535937 -0.42403376 -0.28156498 -0.74855274 0.17942983 0.22322729
0.50076884 -0.05302231 -0.5957091 0.8707866 0.9742016 0.18205181 -1.2733335 -0.41173744
0.106182754 -0.52398664 0.15790877 0.61686397 1.1935428 0.63127196 0.09710292 0.41895193
0.8269169 0.22697645 -0.18147002 -0.7559485 -0.5916841 -1.2648325 -0.5693475 0.08970813
-1.1296239 -0.9177837 -0.17713436 1.1522504 0.9265943 0.2841295 0.96749914 0.30843148
-0.1992218 0.26588693 -0.424279 -0.20954648 1.1867484 0.30015692 -0.22279271 -1.1487752
-0.4590933 0.24874374 0.27605647 -0.20128806 -0.3049076 -0.6398375 0.109030925 0.67587733
0.8730089 0.23783313 -0.98519444 -0.36979768 -0.074746676 0.4939126 -0.2606234 0.065534785
0.27639982 -0.9608551 -0.23371819 1.1620594 -0.06783695 -0.015003697 -0.16052029 -0.4817459
-0.026191685 0.40524468 0.7323085 0.07650327 -0.7565147 -0.1888895 -0.022182507 0.25477618
0.28407183 0.07076784 -0.23039211 -0.15181153 -0.061430603 0.29258505 0.218696 0.23212346
-0.23909691 0.25400406 -0.16724727 -0.2972772 0.39437097 0.05374623 -0.4591046 -0.4546948
-0.09282993 0.52579135 0.600491 0.19194725 -0.7682868 -0.85491854 -0.058892086 0.8725835
-0.13873626 -0.0824148 0.25452536 0.5841132 0.5913249 0.21625143 -0.37885997 -0.8550388
-0.46858793 -0.077245 -0.06923882 -0.069353245 0.47698042 0.5514876 0.39030254 0.307798
0.4572413 0.17184101 -0.28411788 -0.39943278 -0.06240693 -0.33958697 -0.68596613 -0.43951398
-0.6153126 -0.6569247 -0.36719942 0.5261777 0.618436 0.2414576 -0.12791912 0.2652035
0.3991901 0.024661366 -0.020462306 0.1770537 0.23308727 0.35746455 0.47787407 -0.097187355
-0.5853769 -0.3193801 -0.27752933 -0.24211863 -0.21151195 0.14942575 0.21285354 -0.054129574
-0.03653536 0.27348772 -0.12823384 -0.0389215 -0.30816728 -0.06812947 -0.070095874 -0.1457619
-0.0065461695 -0.1743192 -0.40944892 0.06256953 -0.075936735 0.021083714 0.09267813 0.0056099053
-0.038560115 0.009995877 0.0788528 0.28673175 -0.048219863 0.147228 0.014973062 -0.09028276
-0.022297073 0.022851376 0.11031162 0.08023297 -0.25419858 0.0802945 0.10047866 0.08815294
0.19287181 -0.0010172179 -0.07896563 -0.33439115 0.040208943 0.055136394 -0.038985368 -0.09333017
-0.19853164 -0.14596696 -0.1541355 -0.020699825 0.013820005 0.08662147 -0.24355806 0.15175402
1.7553917 2.2427688 0.7925611 -0.2969691 -0.28071323 -0.22721651 -0.56360257 -0.5822939
-0.23986317 -2.2201936 -2.2073448 -0.63619745 -0.067751825 -0.120936945 -0.11042536 -0.4432655
00000000: 0e86 173f a7da abbe f17c fbbe 1ed5 623f
00000010: 6f7a 3b3f d397 cd3e ff59 a4bf 28df 2cbe
00000020: 2133 f53c 0bb2 28bf cb3b a93e 0078 613f
00000030: 5dfd 923f 7315 aa3e 17f6 5d3d eb13 143f
00000040: e3b9 6f3f 48c1 d63e 71b1 d6bd 96d6 47bf
00000050: 29d3 e4be d6be 95bf 09d2 4bbe cac3 6cbd
00000060: 011f 84bf b696 3dbf 0812 08be 4f1d 943f
00000070: 1fd3 1e3f ce5d e73e 880f 653f 8590 9f3d
00000080: 71c8 04be a769 c23d 4105 6ebe c61e 5dbe
00000090: d1b2 803f 41d2 4c3e 49d9 debd 0d12 93bf
000000a0: fcd7 54be e07a dc3d 9bc4 663e f41a d9be
000000b0: 4929 90be 27a1 3fbf 74bc 373e b295 643e
000000c0: 6332 003f ec2d 59bd 6480 18bf dfeb 5e3f
000000d0: 4765 793f ca6b 3a3e 98fc a2bf 40cf d2be
000000e0: 5876 d93d fd23 06bf d6b2 213e ccea 1d3f
000000f0: 03c6 983f 0a9b 213f e5dd c63d de80 d63e
00000100: d3b0 533f 846c 683e 47d3 39be d785 41bf
00000110: 9c78 17bf 08e6 a1bf c2c0 11bf e5b8 b73d
00000120: 8497 90bf dff3 6abf b662 35be f17c 933f
00000130: 4935 6d3f 6c79 913e 06ae 773f bbea 9d3e
00000140: cd00 4cbe 5522 883e 193b d9be 5a93 56be
00000150: 5fe7 973f 2bae 993e c623 64be 110b 93bf
00000160: 470e ebbe aeb6 7e3e 4657 8d3e 751e 4ebe
00000170: d91c 9cbe 64cc 23bf 9b4b df3d 4c06 2d3f
00000180: 837d 5f3f 878a 733e b435 7cbf 1f56 bdbe
00000190: c914 99bd 1de2 fc3e 6e70 85be 1a37 863d
000001a0: 4784 8d3e 9afa 75bf d253 6fbe 5dbe 943f
000001b0: 19ee 8abd 11d2 75bc 6e5f 24be 66a7 f6be
000001c0: f28f d6bc 3b7c cf3e 9278 3b3f bfad 9c3d
000001d0: f3aa 41bf 406c 41be 17b8 b5bc 0672 823e
000001e0: dd71 913e bbee 903d e9eb 6bbe 7b74 1bbe
000001f0: a89e 7bbd b5cd 953e d8f1 5f3e c6b1 6d3e
00000200: d2d5 74be d20c 823e de42 2bbe b834 98be
00000210: feea c93e 0225 5c3d c20f ebbe c2cd e8be
00000220: 9e1d bebd 439a 063f c7b9 193f d28d 443e
00000230: 72ae 44bf f1db 5abf d438 71bd a261 5f3f
00000240: e110 0ebe 17c9 a8bd 2651 823e 7188 153f
00000250: 1261 173f 0471 5d3e eff9 c1be d3e3 5abf
00000260: c2ea efbe a032 9ebd 15cd 8dbd 1309 8ebd
00000270: c736 f43e 4b2e 0d3f bcd5 c73e b397 9d3e
00000280: 881b ea3e 17f7 2f3e e677 91be 7482 ccbe
00000290: 699e 7fbd 58de adbe 7a9b 2fbf fa07 e1be
000002a0: 2085 1dbf 382c 28bf 9001 bcbe 95b3 063f
000002b0: d251 1e3f a940 773e 3bfd 02be c1c8 873e
000002c0: a562 cc3e a206 ca3c 91a0 a7bc 914d 353e
000002d0: 6eae 6e3e 9805 b73e e9ab f43e 2a0a c7bd
000002e0: 43db 15bf ca85 a3be 5318 8ebe f2ed 77be
000002f0: 9796 58be 1003 193e 47f6 593e f9b6 5dbd
00000300: 1aa6 15bd 9506 8c3e bb4f 03be 276c 1fbd
00000310: 1ac8 9dbe 7787 8bbd 6d8e 8fbd 9c42 15be
00000320: 4081 d6bb bb80 32be 4aa3 d1be 7424 803d
00000330: b884 9bbd c1b7 ac3c 08ce bd3d 4cd3 b73b
00000340: 36f1 1dbd bfc5 233c 947d a13d 81ce 923e
00000350: 3182 45bd f0c2 163e 9351 753c 2be6 b8bd
00000360: 5aa8 b6bc cf32 bb3c 0feb e13d 2f51 a43d
00000370: 5126 82be 7171 a43d c1c7 cd3d 8789 b43d
00000380: 3080 453e 2b54 85ba bbb8 a1bd 5135 abbe
00000390: 22b2 243d b3d6 613d 1faf 1fbd e323 bfbd
000003a0: e14b 4bbe 5d78 15be b2d5 1dbe ae92 a9bc
000003b0: 4d6d 623c 9966 b13d 4967 79be 6865 1b3e
000003c0: adb0 e03f 8689 0f40 49e5 4a3f 550c 98be
000003d0: a5b9 8fbe 72ab 68be 4248 10bf 3711 15bf
000003e0: b19e 75be a717 0ec0 2345 0dc0 d6dd 22bf
000003f0: 78c1 8abd caad f7bd b126 e2bd b2f3 e2be

wavenet.conv_layers.0.conv.bias f4 [32]
0.29639882 0.14912032 0.13661012 0.44249272 -0.0729963 -0.19244085 -0.15193771 -0.081932135
0.18450359 -0.029131513 -0.051179197 0.07449621 -0.040370785 0.013341896 0.06710333 -0.047526788
-0.31626916 -1.2181343 -0.28948608 -0.24793702 -2.3398962 -1.1177593 -1.7160778 -1.419952
-0.6347665 -1.714543 -1.2812196 -0.8638758 -0.8137541 -1.8854421 -0.6556543 -1.0796887
00000000: 96c1 973e ffb2 183e 86e3 0b3e 688e e23e
00000010: 167f 95bd 370f 45be 8f95 1bbe 09cc a7bd
00000020: 82ee 3c3e 36a5 eebc 47a1 51bd 7891 983d
00000030: d65b 25bd f897 5a3c 786d 893d 73ab 42bd
00000040: 08ee a1be d3eb 9bbf 8537 94be 34e3 7dbe
00000050: dcc0 15c0 bd12 8fbf 70a8 dbbf fdc0 b5bf
00000060: 0f80 22bf 2576 dbbf 01ff a3bf f726 5dbf
00000070: 3052 50bf 2b56 f1bf f6d8 27bf 3d33 8abf

wavenet.conv_layers.0.skip_conv.weight f4 [16, 16, 1]
0.011758452 0.031049367 0.0008704764 0.00569648 -0.025319366 0.05106237 -0.13440853 -0.045968723
-0.00711087 0.019135019 -0.08930389 -0.01868431 -0.03883996 0.00031283632 -0.00321878 -0.01977008
-0.034719925 0.0044557583 0.0017492499 -0.023566756 0.0638002 -0.016099863 -0.047784243 0.039262787
-0.003007016 -0.07883703 -0.033542648 0.00055554707 -0.01739786 0.0529231 0.028756114 0.04860375
0.030528933 -0.0152773475 -0.0016228643 0.016792847 -0.035475418 0.046334416 -0.043404937 -0.02778355
-0.0028058907 0.07690398 -0.16267996 0.01775817 -0.0065754503 -0.13737635 -0.029022321 0.0059173703
0.54282165 0.3671691 -0.15378821 -0.4754126 0.00713963 -0.2220914 -0.066283986 -0.09541922
-0.3535722 0.08447866 -0.1935245 -0.014332894 0.7091713 -0.2944208 0.34332183 -0.27844286
0.02041405 -0.00080083904 -0.00092541904 0.014686073 0.07654444 -0.09404216 -0.04675176 -0.08589125
-0.019376788 -0.11275133 0.06376 0.013341096 0.00887075 -0.09428184 -0.030204028 0.07344575
0.45622852 -0.0019196756 0.031415325 -0.30610502 0.010778005 -0.1733467 -0.09318061 -0.31411225
-0.13527505 -0.13824886 -0.15026288 -0.014203557 0.464106 -0.34667063 0.15797216 0.1921673
-0.0024118992 0.024273574 -0.00070996163 -0.0093430355 0.016046481 0.069004975 0.08439634 -0.12538679
0.035130654 -0.074424826 0.045562472 0.10305553 0.03534187 0.033854667 0.014977575 -0.057490904
-0.018760823 -0.076503314 -0.00010146966 -5.170775e-05 0.107718736 0.011279882 0.06137136 -0.034120433
0.007294349 -0.2155801 0.118484914 0.013469145 0.02355111 0.110441454 0.04826009 -0.064484954
0.02352125 -0.04063581 -0.0011370219 0.019821037 -0.11561048 0.010770741 0.063248746 -0.11901177
-0.0013427058 0.01721983 0.0467445 -0.008120761 0.021700855 -0.049458064 -0.020621499 -0.028749587
-0.014385147 0.07291192 0.026466763 -0.07866068 -0.23967192 -0.19735713 0.08355683 0.14669517
0.2115886 0.20162351 -0.18224005 -0.040256113 -0.11557967 0.18337336 -0.10758732 -0.07544394
-0.13569869 -0.051424712 -0.002459814 0.004414844 0.069066495 -0.24849972 0.030801201 -0.42794102
-0.115827635 -0.15168206 -0.02706316 0.011788026 -0.24167879 -0.3711709 0.17229983 -0.048201524
0.19439058 -0.33311722 -0.019760545 0.10267676 0.10846828 0.41526383 -0.25679767 -0.10619051
0.14912282 -0.19219314 0.27893853 -0.08727978 0.3513611 -0.24841078 0.050112423 0.58988273
0.009345396 0.08157655 -0.74625224 -0.11652716 -0.1280126 -0.37830526 -0.08000858 0.037510883
0.18905894 0.17559126 -0.22234328 -0.03358512 0.040709466 -0.057057615 0.3095418 -0.23709573
0.009704293 -0.014570017 0.0006045838 0.00810284 0.05220844 0.0066820155 0.09499754 -0.043699946
-0.0015842129 -0.0024335252 -0.0008324715 0.019078786 0.018891608 0.062412493 -0.0036817964 0.022399494
0.0070431903 -0.013216042 -0.0014933465 0.0025207617 0.037614517 -0.07027385 0.09833878 -0.0040943166
-0.00093079766 -0.0532278 -0.060773753 -0.0037144143 0.017705249 -0.09622855 -0.031084074 0.061163586
0.043904748 0.025535008 -0.0030586729 0.023256984 0.004281163 -0.0033856092 -0.0013310919 -0.020474056
0.011635394 0.035602637 -0.023743812 0.0014690071 0.001570717 -0.017719915 -0.045201827 -0.03993414
00000000: 86a6 403c 3e5b fe3c af30 643a 8aa9 ba3b
00000010: 8f6a cfbc c726 513d 64a2 09be b349 3cbd
00000020: 4d02 e9bb 0bc1 9c3c f5e4 b6bd d70f 99bc
00000030: a616 1fbd 2e04 a439 2bf2 52bb ddf4 a1bc
00000040: 7b36 0ebd 9c01 923b 1647 e53a 120f c1bc
00000050: aea9 823d dce3 83bc 69b9 43bd 04d2 203d
00000060: 5b11 45bb 4f75 a1bd 0464 09bd 22a2 113a
00000070: f585 8ebc e4c5 583d f191 eb3c ba14 473d
00000080: d017 fa3c d74d 7abc 4ab6 d4ba 2791 893c
00000090: ac4e 11bd 28c9 3d3d 60c9 31bd 549a e3bc
000000a0: 09e3 37bb d57f 9d3d 9395 26be 9579 913c
000000b0: e076 d7bb 63ac 0cbe 38c0 edbc 80e6 c13b
000000c0: 5cf6 0a3f 97fd bb3e a87a 1dbe 4869 f3be
000000d0: 8ff3 e93b ee6b 63be e6bf 87bd 276b c3bd
000000e0: 6a07 b5be 2603 ad3d 492b 46be 84d4 6abc
000000f0: 408c 353f 53be 96be e1c7 af3e 1090 8ebe
00000100: 5e3b a73c 66ef 51ba d297 72ba db9d 703c
00000110: 55c3 9c3d 2d99 c0bd c67e 3fbd c0e7 afbd
00000120: 12bc 9ebc 2bea e6bd 9a94 823d 9d94 5a3c
00000130: 9f56 113c d616 c1bd 706e f7bc ba6a 963d
00000140: c996 e93e a09d fbba 5bad 003d ccb9 9cbe
00000150: 3b96 303c cc81 31be 7ad5 bebd 52d3 a0be
00000160: 8b85 0abe 1c91 0dbe 83de 19be 09b6 68bc
00000170: 4d9f ed3e d07e b1be 74c3 213e 81c7 443e
00000180: f410 1ebb 60d9 c63c b81c 3aba 8813 19bc
00000190: e973 833c 7b52 8d3d fdd7 ac3d 6565 00be
000001a0: 29e5 0f3d 0b6c 98bd b79f 3a3d c70e d33d
000001b0: a3c2 103d 31ab 0a3d 8164 753c 957b 6bbd
000001c0: 4cb0 99bc c5ad 9cbd 1ccc d4b8 c6e0 58b8
000001d0: a49b dc3d 41cf 383c 8960 7b3d dec1 0bbd
000001e0: 6f05 ef3b 08c1 5cbe 38a8 f23d b0ad 5c3c
000001f0: 42ee c03c 212f e23d 5fac 453d b010 84bd
00000200: a3af c03c bc71 26bd 2008 95ba ba5f a23c
00000210: 30c5 ecbd c377 303c 8f88 813d 71bc f3bd
00000220: bbfd afba 9a10 8d3c 2977 3f3d f10c 05bc
00000230: fec5 b13c 8a94 4abd 6bee a8bc 4184 ebbc
00000240: aeaf 6bbc d852 953d d3d0 d83c da18 a1bd
00000250: 8e6c 75be fd17 4abe d81f ab3d 4237 163e
00000260: afaa 583e 6576 4e3e 239d 3abe 98e3 24bd
00000270: 09b5 ecbd 3ac6 3b3e be56 dcbd 5a82 9abd
00000280: 99f4 0abe b8a2 52bd d534 21bb 65aa 903b
00000290: bc72 8d3d b676 7ebe cd52 fc3c 161b dbbe
000002a0: 0a37 edbd 8b52 1bbe 8fb3 ddbc 9122 413c
000002b0: a57a 77be 1d0a bebe 5e6f 303e f66e 45bd
000002c0: 530e 473e 578e aabe dee0 a1bc 3148 d23d
000002d0: 9e24 de3d 769d d43e fc7a 83be 697a d9bd
000002e0: a7b3 183e 47ce 44be 08d1 8e3e bebf b2bd
000002f0: 9ae5 b33e 655f 7ebe af42 4d3d 8e02 173f
00000300: 6f1d 193c 9b11 a73d 630a 3fbf cba5 eebd
00000310: bc15 03be 3ab1 c1be 8adb a3bd 03a5 193d
00000320: ab98 413e 32ce 333e f5ad 63be 8d90 09bd
00000330: f8be 263d 3fb5 69bd 437c 9e3e 39c9 72be
00000340: c1fe 1e3c 15b7 6ebc ef7c 1e3a c6c1 043c
00000350: 84d8 553d cff4 da3b 128e c23d b7fe 32bd
00000360: 5da5 cfba c77b 1fbb 373a 5aba 1d4b 9c3c
00000370: 93c2 9a3c 3ea4 7f3d 4b4a 71bb 257f b73c
00000380: 90ca e63b 1988 58bc 65bc c3ba 5d33 253b
00000390: ae11 1a3d bceb 8fbd d865 c93d 9e29 86bb
000003a0: c600 74ba 6505 5abd e6ed 78bd 886d 73bb
000003b0: 990a 913c 7913 c5bd 07a4 febc ab86 7a3d
000003c0: 77d5 333d cb2e d13c 0474 48bb 6e85 be3c
000003d0: 0049 8c3b 19e1 5dbb 0878 aeba 35b9 a7bc
000003e0: 61a2 3e3c 12d4 113d 6282 c2bc b38b c03a
000003f0: 84e0 cd3a 5b29 91bc 8d25 39bd fb91 23bd

wavenet.conv_layers.0.skip_conv.bias f4 [16]
-5.3078813e-05 0.0141850915 -0.0012701894 0.069806285 -0.011328371 0.022502083 0.0024436763 0.0042822845
-0.0098874215 0.010306901 0.03948664 -0.07306851 0.061285924 -0.0049980874 -0.004584969 -0.004854805
00000000: f1a0 5eb8 9668 683c 7c7c a6ba 99f6 8e3d
00000010: a29a 39bc 4a56 b83c 1626 203b 6852 8c3b
00000020: dafe 21bc 47de 283c bebc 213d f1a4 95bd
00000030: f306 7b3d ffc6 a3bb 823d 96bb 0e15 9fbb

wavenet.conv_layers.0.out_conv.weight f4 [16, 16, 1]
0.023842173 -0.038320087 0.05561782 0.22029448 0.028935768 0.03783657 -0.040289722 -0.03653781
0.020069301 -0.05515008 0.1916143 -0.08597367 0.043131344 -0.00051703694 0.006244351 0.06217916
-0.009173667 -0.02456003 0.009943989 0.4739189 -0.0016382125 0.19838057 -0.0011179305 -0.002981316
0.0075950786 -0.14729077 0.22793458 -0.1287023 0.37044796 -0.014536237 -0.013898171 0.03455496
-0.0076374356 -0.01144529 0.00022918048 0.7389778 -0.0034020022 0.7902137 0.054062992 0.013892479
0.006310036 -0.3433778 -0.18303032 0.055515196 0.44845453 0.006971407 0.010563809 0.021594033
0.00879767 -0.0062146136 0.001707793 0.13099621 -0.0002837205 0.10492411 -0.00088824134 0.024247669
-0.00027154837 -0.08614815 0.0228639 0.19945294 0.19252504 0.019367874 0.0033897758 0.0066577196
0.012963337 -0.038766786 0.03992092 -0.3765539 0.016995313 -0.19390443 -0.013654146 0.037351664
0.02757574 0.1696563 0.08593907 -0.34967947 -0.61570865 0.047649167 0.010814179 0.04625056
-0.0115526775 0.019603034 -0.02377507 -0.6109079 -0.028747527 0.13028763 -0.0018063893 -0.030141452
-0.023737978 0.34915036 -0.40240782 0.34341338 -0.76907283 -0.0468258 -0.0066595166 -0.039076447
-0.009085226 0.0014219396 0.013928245 0.38305655 -0.008168756 0.75201076 0.025186596 -0.009253893
-0.015993943 -0.33430567 -0.096520774 0.09326405 0.06663167 -0.0017491002 0.0017143723 0.0024403862
0.006471997 0.017492026 -0.004282162 -0.3194974 -0.021632375 -0.2880443 0.038511503 -0.002965931
-0.011449169 -0.044793613 0.17911427 -0.27545556 0.012859833 -0.041006006 -0.010128558 -0.008266702
0.03149376 0.006386048 0.03511336 0.44075486 -0.0051358216 0.071627036 -0.0011090755 -0.014432232
0.0054896157 0.048677593 -0.14561684 -0.3912756 -0.027876746 -0.005154886 0.016907096 0.028658388
0.003912088 -0.01061527 0.019972483 0.5868968 0.0012328592 0.5316334 0.06623422 -0.024635438
0.0053046225 -0.06759293 -0.34001997 0.10780689 -0.08351162 -0.0058484925 0.020685576 0.024100987
0.0134368185 -0.0020813772 -0.005469042 -0.13499583 0.01901668 -0.2548294 -0.061007395 -0.025699545
0.018558016 0.254028 0.18377022 0.18708529 1.6363966 -0.009721425 0.008257462 -0.0026506484
0.009214145 -0.007645174 0.013011313 -0.2390396 0.0065326896 -0.100651704 -0.021970654 -0.01983657
0.011201916 0.10003699 -0.09051788 0.43876755 0.19548376 -0.0137113035 0.026263133 0.02389052
-0.022847861 0.01979576 -0.028934175 -0.18382673 -0.0073703923 0.0128934635 -0.0068473117 0.055278655
-0.005310796 -0.071137145 -0.35694662 0.3514034 0.36627573 0.035723757 0.01495663 -0.028155426
-0.0151866255 -0.008699855 4.9029466e-05 -0.3489396 -0.0018582499 -0.6000607 -0.029284483 0.033521667
0.01090421 0.23934376 0.11287629 -0.009431098 -0.067530334 0.027330602 0.0011467404 0.009478559
-0.038708005 -0.036940034 -0.062961325 0.28824434 0.02404365 0.14334908 0.04703906 -0.026533134
0.03657768 0.1519209 -0.6070153 0.035959132 0.06304203 -0.011564307 0.015896147 -0.030170385
0.0055701397 0.04121636 -0.004137941 -0.59238356 -0.007599359 -0.27279246 -0.025999999 0.036124814
-0.02425404 0.31484818 0.07614516 -0.4089054 -0.5647943 0.0033944997 0.0072628446 -0.03165151
00000000: a950 c33c 86f5 1cbd 83cf 633d e094 613e
00000010: b40a ed3c 85fa 1a3d d606 25bd aca8 15bd
00000020: 6068 a43c 0de5 61bd 8a36 443e f712 b0bd
00000030: 7eaa 303d c389 07ba 6a9d cc3b 93af 7e3d
00000040: 264d 16bc 1e32 c9bc 1dec 223c 80a5 f23e
00000050: 4ab9 d6ba 4724 4b3e 8687 92ba 2f62 43bb
00000060: 23e0 f83b 64d3 16be af67 693e 89ca 03be
00000070: 5bab bd3e 6629 6ebc 27b5 63bc 8089 0d3d
00000080: 7443 fabb 0785 3bbc 2b50 7039 a62d 3d3f
00000090: 20f4 5ebb 724b 4a3f 2871 5d3d 489d 633c
000000a0: 6bc4 ce3b 37cf afbe 4d6c 3bbe e763 633d
000000b0: d59b e53e 6770 e43b d413 2d3c f8e5 b03c
000000c0: 1a24 103c f5a3 cbbb 06d8 df3a df23 063e
000000d0: 52c0 94b9 74e2 d63d ded8 68ba 0ca3 c63c
000000e0: 9b5e 8eb9 716e b0bd 134d bb3c 643d 4c3e
000000f0: 4925 453e 60a9 9e3c 0027 5e3b 0029 da3b
00000100: 2d64 543c ecc9 1ebd 1e84 233d accb c0be
00000110: c139 8b3c e28e 46be a4b5 5fbc 0ffe 183d
00000120: 85e6 e13c 62ba 2d3e d300 b03d 3009 b3be
00000130: 159f 1dbf c62b 433d f42d 313c 3a71 3d3d
00000140: 7147 3dbc 8b96 a03c f0c3 c2bc 7664 1cbf
00000150: ef7f ebbc 1f6a 053e 5ec4 ecba 35eb f6bc
00000160: 2676 c2bc d6c3 b23e 6608 cebe e1d3 af3e
00000170: f5e1 44bf 69cc 3fbd 1338 dabb a00e 20bd
00000180: 33da 14bc 6060 ba3a 4b33 643c fd1f c43e
00000190: 3fd6 05bc c783 403f 1f54 ce3c a49d 17bc
000001a0: bb05 83bc 1d2a abbe afac c5bd 3901 bf3d
000001b0: 2f76 883d 1042 e5ba cab4 e03a e3ee 1f3b
000001c0: 0c13 d43b 704b 8f3c 6151 8cbb 2a95 a3be
000001d0: 6136 b1bc 8b7a 93be 3dbe 1d3d 1160 42bb
000001e0: 4c95 3bbc 8279 37bd bb69 373e 8308 8dbe
000001f0: 0db2 523c eaf5 27bd 40f2 25bc 1071 07bc
00000200: 9aff 003d 0e42 d13b 07d3 0f3d 9faa e13e
00000210: 654a a8bb 32b1 923d 665e 91ba 2b75 6cbc
00000220: 3ce2 b33b 2862 473d 951c 15be 4755 c8be
00000230: c65d e4bc 51ea a8bb c080 8a3c ffc4 ea3c
00000240: f930 803b abeb 2dbc 559d a33c de3e 163f
00000250: e497 a13a 2019 083f cfa5 873d 42d0 c9bc
00000260: 66d2 ad3b 296e 8abd 1917 aebe dcc9 dc3d
00000270: 2408 abbd b6a4 bfbb cc74 a93c 6f6f c53c
00000280: 1a26 5c3c b767 08bb a635 b3bb 593c 0abe
00000290: dec8 9b3c 0079 82be e4e2 79bd da87 d2bc
000002a0: fb06 983c f50f 823e 432e 3c3e 4993 3f3e
000002b0: 7275 d13f 9d46 1fbc 4e4a 073c 80b6 2dbb
000002c0: edf6 163c 5e84 fabb 672d 553c ccc6 74be
000002d0: 2c10 d63b 7b22 cebd cdfb b3bc 4d80 a2bc
000002e0: 3e88 373c 32e0 cc3d 7061 b9bd 24a6 e03e
000002f0: e52c 483e 60a5 60bc c825 d73c 0db6 c33c
00000300: 702b bbbc b82a a23c 5d07 edbc 133d 3cbe
00000310: 5583 f1bb 1b3f 533c 6a5f e0bb df6b 623d
00000320: 3006 aebb 5ab0 91bd b5c1 b6be 25eb b33e
00000330: 7e88 bb3e 1353 123d a70c 753c 35a6 e6bc
00000340: 53d1 78bc d689 0ebc fda4 4d38 36a8 b2be
00000350: 8590 f3ba 949d 19bf 03e6 efbc 044e 093d
00000360: 92a7 323c 8816 753e af2b e73d e484 1abc
00000370: 584d 8abd 6de4 df3c 394e 963a f54b 1b3c
00000380: 498c 1ebd 6f4e 17bd def1 80bd c394 933e
00000390: 30f7 c43c 1aca 123e 08ac 403d 045c d9bc
000003a0: 7ad2 153d 2791 1b3e 5b65 1bbf e249 133d
000003b0: 2e1c 813d 3878 3dbc a338 823c e227 f7bc
000003c0: b885 b63b 7cd2 283d 9197 87bb 73a6 17bf
000003d0: 0b04 f9bb 74ab 8bbe f3fd d4bc 9df7 133d
000003e0: 69b0 c6bc c833 a13e fef1 9b3d 0c5c d1be
000003f0: 5c96 10bf 4176 5e3b 28fd ed3b 04a5 01bd

wavenet.conv_layers.0.out_conv.bias f4 [16]
0.093663275 -0.03528066 0.21251845 0.13654117 0.09013493 -0.06305552 0.04532252 0.10378807
0.017756367 0.02769629 0.009517793 -0.011735444 -0.10665662 0.08147688 0.040737092 -0.06821842
00000000: 88d2 bf3d 7482 10bd 709e 593e 73d1 0b3e
00000010: aa98 b83d 4123 81bd 1ba4 393d d78e d43d
00000020: cd75 913c 54e3 e23c 84f0 1b3c 0546 40bc
00000030: c96e dabd 5add a63d f0db 263d 19b6 8bbd

wavenet.conv_layers.1.conv.weight f4 [32, 16, 3]
-0.009034951 0.33768824 0.0525841 -0.07824824 -0.08570443 -0.10389337 0.0641873 -0.0523426
0.038963858 0.117794916 0.090769 0.040931482 -0.0847628 -0.16875307 0.08864854 0.15922423
-0.315118 0.042143676 -0.12779796 0.4757935 -0.31811437 -0.01900751 -0.12457726 0.17216755
0.12749024 0.25770205 -0.065578364 0.023610493 -0.027532635 0.011976554 -0.12801549 -0.122458406
0.016936349 0.006597476 -0.38936448 -0.03612932 0.04312021 -0.1881008 -0.10355488 -0.042464823
-0.35542884 -0.10375622 -0.56105053 -0.46458262 -0.45384255 -0.01235622 -0.2729392 -0.038194854
0.35604468 0.14862286 0.55601287 -0.23927146 -0.12363706 -0.0016265466 -0.16447757 0.08366749
-0.01731578 -0.1515962 0.075873256 -0.059399687 0.23385915 0.048698135 -0.26388273 0.07112257
0.011124378 -0.8469781 0.3012206 0.26819766 0.6598395 -0.04244686 -0.063016295 -0.2330152
0.21135014 0.38457647 0.051220674 -0.10330672 -0.057374883 -0.19706325 -0.37766904 -0.22376762
0.48017085 -0.030858444 -0.1325651 -0.23133332 0.21036795 -0.1909914 0.16081704 -0.1539004
-0.06596234 -0.39510128 -0.79947597 -0.90631104 -0.11021611 0.14842492 -0.06756888 -1.0874183
0.07913499 -0.5646304 -0.012152154 0.19216901 -0.37910855 0.082968764 0.047585253 -0.05468877
-0.07179503 0.081431665 -0.2847238 0.10030821 -0.15512376 0.16898753 0.23374116 -0.14998409
0.38474983 0.4218114 0.023951568 -0.6629026 -0.30542403 -0.17689964 0.36899236 -0.52869123
-0.12790269 -0.21753411 -0.047791015 0.019174801 -0.23818728 0.0072941906 0.22823514 0.27722824
-0.11650937 0.015232257 0.6678208 0.3560884 -0.0025641653 -0.027113833 -0.1503991 -0.029241284
0.746893 0.02885483 1.0955256 0.39777875 0.42488495 -0.2983825 0.65202767 0.35486084
0.32258072 -0.07526961 0.4475671 0.10021385 0.85958403 -0.20828043 0.20288835 0.16092008
-0.02700029 -0.008472875 0.72313595 -0.20928337 -0.3774965 0.3182871 -0.43232372 -0.67238337
0.5190817 -1.0382205 0.6535476 -0.88789594 0.61714476 -0.4393031 0.42167687 -0.5838209
0.11842825 -1.1889964 0.36626643 0.023139931 0.91427237 -0.29339224 0.65487653 0.6453457
0.6577759 -0.32629874 -0.23729709 0.059772722 0.3398289 -0.23874962 0.1341345 -0.5168573
-0.3953288 -0.08212631 0.5969597 -0.70336694 0.40815532 -0.96340287 -0.887046 -0.54168034
0.3766466 0.0019866948 0.00091573567 0.053109784 0.013107332 0.11538902 -0.10929527 -0.16650674
0.015567843 -0.1689213 -0.028589759 -0.022110293 0.09164144 -0.018455349 -0.11264347 -0.05725672
0.18731466 -0.42039284 0.1114481 -0.059794284 0.16380987 -0.13571383 0.1378882 0.23402917
0.02383184 0.031112378 0.19184078 -0.15428251 0.1796291 0.06581044 0.029710736 -0.07627115
0.30540848 -0.12622225 -0.16347672 -0.022205843 0.14276701 0.06829795 -0.0140937725 -0.13036802
-0.29895937 -0.13303567 -0.13301185 -0.12490863 -0.057555947 0.10115639 -0.034209415 -0.577506
-0.08635973 -0.052103627 0.10061454 -0.112273335 -0.8578395 0.32850048 0.25872222 0.58148605
0.048210204 -0.119926535 -0.42644796 0.116699986 -1.094421 -1.4601413 -0.40673444 -2.4782424
00000000: 5507 14bc 79e5 ac3e 6d62 573d 9d40 a0bd
00000010: ce85 afbd 0cc6 d4bd a274 833d 3265 56bd
00000020: 9198 1f3d 763e f13d 19e5 b93d c5a7 273d
00000030: 1e98 adbd 9bcd 2cbe 5e8d b53d ad0b 233e
00000040: 2657 a1be d99e 2c3d 78dd 02be 359b f33e
00000050: e3df a2be a3b5 9bbc 5d22 ffbd b14c 303e
00000060: cd8c 023e 86f1 833e f34d 86bd cb6a c13c
00000070: 1f8c e1bc 4f39 443c 7e16 03be 79cb fabd
00000080: 19be 8a3c a42f d83b c85a c7be 56fc 13bd
00000090: d19e 303d 7f9d 40be 9514 d4bd 98ef 2dbd
000000a0: c5fa b5be 247e d4bd 02a1 0fbf c6dd edbe
000000b0: 0d5e e8be be71 4abc b0be 8bbe 3572 1cbd
000000c0: 7d4b b63e 9730 183e dc56 0e3f 9403 75be
000000d0: 6d35 fdbd d931 d5ba cf6c 28be dc59 ab3d
000000e0: d3d9 8dbc 093c 1bbe 7063 9b3d 164d 73bd
000000f0: c678 6f3e b277 473d a31b 87be b6a8 913d
00000100: 0643 363c 8fd3 58bf 9639 9a3e 3451 893e
00000110: 3eeb 283f c2dc 2dbd b00e 81bd 899b 6ebe
00000120: 2c6c 583e 35e7 c43e c5cc 513d 7992 d3bd
00000130: ed01 6bbd f3ca 49be d65d c1be 5723 65be
00000140: f4d8 f53e d9ca fcbc 25bf 07be a4e2 6cbe
00000150: b26a 573e 4093 43be 39ad 243e 1198 1dbe
00000160: 4317 87bd b74a cabe 75aa 4cbf 0004 68bf
00000170: fcb8 e1bd b4fc 173e 8e61 8abd 8630 8bbf
00000180: 8711 a23d 9e8b 10bf d419 47bc f4c7 443e
00000190: 841a c2be 87eb a93d c1e8 423d 5501 60bd
000001a0: 4609 93bd a5c5 a63d 51c7 91be 646e cd3d
000001b0: c3d8 1ebe 110b 2d3e d859 6f3e 6e95 19be
000001c0: eefd c43e aaf7 d73e 1436 c43c fcb3 29bf
000001d0: 8a60 9cbe 2e25 35be 91ec bc3e 4f58 07bf
000001e0: ecf8 02be 43c1 5ebe 83c0 43bd 7914 9d3c
000001f0: 5ee7 73be 1b04 ef3b 79b6 693e dcf0 8d3e
00000200: 779c eebd b790 793c 4ef6 2a3f 3851 b63e
00000210: 8e0b 28bb d41d debc 3902 1abe 6b8b efbc
00000220: 6134 3f3f f760 ec3c 2f3a 8c3f a8a9 cb3e
00000230: 858a d93e 97c5 98be 49eb 263f 52b0 b53e
00000240: 4d29 a53e f426 9abd 8427 e53e eb3c cd3d
00000250: b30d 5c3f 7747 55be f7c1 4f3e 3cc8 243e
00000260: b62f ddbc d0d1 0abc 701f 393f 614e 56be
00000270: 3947 c1be 87f6 a23e 8959 ddbe 5121 2cbf
00000280: 8ae2 043f 69e4 84bf e54e 273f 264d 63bf
00000290: 33fd 1d3f 56ec e0be 08e6 d73e 4975 15bf
000002a0: 838a f23d 0931 98bf 4687 bb3e f48f bd3c
000002b0: c10d 6a3f 8237 96be fda5 273f 6035 253f
000002c0: 0064 283f a110 a7be 02fe 72be 3ed4 743d
000002d0: 0efe ad3e c87a 74be 8e5a 093e c350 04bf
000002e0: 8968 cabe d731 a8bd 5ad2 183f db0f 34bf
000002f0: bcf9 d03e 92a1 76bf 7215 63bf 90ab 0abf
00000300: d3d7 c03e 3533 023b fb0d 703a a589 593d
00000310: 23c0 563c 1451 ec3d 33d6 dfbd be80 2abe
00000320: 4410 7f3c b5f9 2cbe 1235 eabc a520 b5bc
00000330: 82ae bb3d ac2f 97bc 9fb1 e6bd 0686 6abd
00000340: 6acf 3f3e bb3d d7be e73e e43d daea 74bd
00000350: c6bd 273e 91f8 0abe 9032 0d3e 58a5 6f3e
00000360: fe3a c33c 63df fe3c e971 443e 3cfc 1dbe
00000370: b1f0 373e a0c7 863d ee63 f33c 0c34 9cbd
00000380: 805e 9c3e 6840 01be 7166 27be 07e9 b5bc
00000390: 8431 123e ccdf 8b3d 91e9 66bc 327f 05be
000003a0: 3411 99be 813a 08be 4234 08be 19d0 ffbd
000003b0: c9bf 6bbd 152b cf3d 2c1f 0cbd 6fd7 13bf
000003c0: 5fdd b0bd 9d6a 55bd ff0e ce3d 90ef e5bd
000003d0: 5f9b 5bbf 3731 a83e 3d77 843e 45dc 143f
000003e0: 1078 453d 0b9c f5bd 6357 dabe 6700 ef3d
000003f0: fd15 8cbf e9e5 babf 7f3f d0be 869b 1ec0

wavenet.conv_layers.1.conv.bias f4 [32]
0.021266796 -0.013090091 -0.06373423 -0.3101445 -0.07301202 -0.082768485 -0.0012701708 -0.4594301
0.12281342 -0.1066419 -0.0086596515 -0.15059692 -0.084075645 -0.0875149 0.10273801 -0.061525706
-2.2621555 -2.41827 -2.23414 -1.7906172 -3.2214968 -1.639057 -2.5794437 -0.22560245
-0.9694564 -2.640285 -2.3692575 0.0784605 -3.0544546 -1.6892108 -1.0316637 -3.5877445
00000000: b437 ae3c d277 56bc 1887 82bd 43cb 9ebe
00000010: 5387 95bd 8682 a9bd dc7b a6ba 6c3a ebbe
00000020: 9a85 fb3d 1267 dabd 36e1 0dbc 1436 1abe
00000030: da2f acbd 033b b3bd 4e68 d23d 6102 7cbd
00000040: 28c7 10c0 f0c4 1ac0 26fc 0ec0 f232 e5bf
00000050: 012d 4ec0 9fcc d1bf 9b15 25c0 5404 67be
00000060: 4b2e 78bf 6efa 28c0 eaa1 17c0 e6af a03d
00000070: 2f7c 43c0 0f38 d8bf 8e0d 84bf 9b9d 65c0

wavenet.conv_layers.1.skip_conv.weight f4 [16, 16, 1]
-0.009793679 -0.04162953 -0.024863236 0.011456583 -0.0143506965 -0.14463487 0.020853246 -0.00966594
-0.008539351 0.06920163 -0.009885277 -0.009225938 0.034582667 0.022022476 0.0055271075 0.0050713117
0.041010078 0.1378469 -0.05023005 0.013633027 0.030975137 -0.104890466 -0.049433194 0.0022386878
-0.006188355 0.08468299 0.07877536 -0.0036819351 -0.037371423 -0.03482251 -0.0015469245 -0.010838064
0.008100679 0.09566742 -0.013532568 -0.51823735 0.023457812 0.37162197 0.019805482 0.66235477
0.321927 -0.016408885 -0.0100762155 0.15071961 -0.0027701685 -0.0015737165 -0.49036905 0.009055607
-0.020381315 -0.14382832 -0.0668292 -0.0076428503 0.034890343 0.06547917 -0.050262693 0.0091845095
0.0051424038 0.007672207 0.023238666 -0.008980423 0.015355331 -0.028449686 0.026929962 -0.056998603
-0.0039316216 -0.026958061 -0.055454824 -0.015418614 -0.071510635 0.10627072 0.017587632 0.0013129847
0.0107570905 0.077482395 0.00058758963 0.0021554995 0.03151339 0.010112443 0.011636294 -0.061748426
0.05808532 0.070251554 -0.041778747 0.00021792584 0.05532511 0.005936135 -0.065557644 0.01015232
-0.009106053 0.046030976 0.013156328 -0.0020072856 -0.05598165 0.0038381019 0.004869006 -0.02540387
0.025896966 0.116425075 0.039067656 -0.03188421 -0.02927344 -0.10768656 -0.030594327 0.006775088
-0.0059416518 -0.024054915 0.049395297 -0.0019719698 -0.020855682 0.04870038 0.006879535 -0.03431891
-0.01658556 -0.38505748 0.28300598 -0.61221135 -0.16778515 -0.14730412 0.052283194 0.11282278
-0.046867874 0.114117675 -0.017968168 -0.053168993 0.016209545 0.02027046 0.026564743 0.0076365136
-0.00021570822 -0.17346475 -0.03220593 0.024877382 0.0042577353 -0.08513064 0.022855463 -0.001188407
-0.017935669 -0.020565273 -0.053207427 -0.010395711 0.005665228 0.007537487 0.008566663 -0.005700497
-0.0011681528 -0.051988218 -0.045629736 -0.026750827 -0.018329902 -0.015155981 0.039126184 -0.0025180671
0.01308077 -0.046612 -0.052982982 -0.00030472936 0.028381992 -0.030534396 0.03777175 0.02284198
0.07474694 0.003308221 0.015248296 -0.011347498 0.022871098 0.012965702 -0.06884248 0.005242052
0.00022502546 0.082765654 -0.034699604 0.00041539595 -0.051390722 -0.011073143 -0.013823237 0.04508706
-0.03565311 -0.06228723 0.037916128 -0.024790047 0.028988488 0.01070805 0.06545884 -0.0076925238
0.011465299 -0.018175615 0.016438875 -0.002696898 0.075303346 -0.01971821 0.02143291 0.014803818
0.026187465 -0.07150598 -0.06830977 0.025395522 0.03705218 -0.09327242 0.019204812 -0.008682646
-0.015100185 -0.06809143 -0.03256897 -0.008508358 -0.0033839117 0.027521623 0.01143098 -0.04358453
0.009352221 0.1575041 0.077456295 -0.1361173 0.13371456 -0.4429223 -0.012094103 0.030944856
0.00097017153 -0.15730187 0.005904512 -0.020660745 0.052203022 -0.21965784 0.02643961 -0.034098536
-0.014539854 -0.040659282 -0.04102216 0.008869959 0.0054817395 -0.08276398 0.031124206 -0.0055793026
0.0024237968 -0.02049638 0.05609454 -0.0036072393 -0.01241306 0.0066522867 -0.021076098 -0.053330734
0.013158949 0.0216743 0.006343295 -0.037370216 0.048803575 0.00082134065 -0.06196557 -0.0016683909
0.0058433157 0.0054784357 0.07195442 0.0041407514 -0.03312171 -0.032595035 -0.0022106294 -0.03672463
00000000: ab75 20bc ba83 2abd fcad cbbc 64b4 3b3c
00000010: 2f1f 6bbc 2a1b 14be 6dd4 aa3c e45d 1ebc
00000020: a2e8 0bbc 96b9 8d3d dbf5 21bc 6328 17bc
00000030: 8ea6 0d3d 7b68 b43c bd1c b53b 3f2d a63b
00000040: 2ffa 273d bd27 0d3e 06be 4dbd 0f5d 5f3c
00000050: 92bf fd3c d0d0 d6bd 767a 4abd f3b6 123b
00000060: afc7 cabb 476e ad3d fa54 a13d 9f4c 71bb
00000070: c712 19bd 0ca2 0ebd 2cc2 caba 2392 31bc
00000080: b6b8 043c 48ed c33d b4b7 5dbc 34ab 04bf
00000090: 992a c03c 3c45 be3e 1b3f a23c 1590 293f
000000a0: 9ed3 a43e ed6b 86bc b616 25bc 3e56 1a3e
000000b0: b78b 35bb 2a45 ceba a711 fbbe f85d 143c
000000c0: b7f6 a6bc bb47 13be bfdd 88bd e070 fabb
000000d0: 2de9 0e3d f119 863d 41e0 4dbd a07a 163c
000000e0: 9c81 a83b 2367 fb3b 045f be3c a022 13bc
000000f0: ed94 7b3c 510f e9bc 399c dc3c 5e77 69bd
00000100: d5d4 80bb 27d7 dcbc 9924 63bd 5b9e 7cbc
00000110: 2b74 92bd 77a4 d93d f013 903c 7518 ac3a
00000120: 823e 303c 17af 9e3d 7908 1a3a 4843 0d3b
00000130: 2f14 013d a9ae 253c 28a6 3e3c ebeb 7cbd
00000140: dfea 6d3d 0ce0 8f3d 3120 2bbd 0683 6439
00000150: 959c 623d e983 c23b 1643 86bd eb55 263c
00000160: 8e31 15bc fa8a 3c3d a48d 573c aa8c 03bb
00000170: 044d 65bd aa88 7b3b 2f8c 9f3b c71b d0bc
00000180: e025 d43c 4570 ee3d 6805 203d 0499 02bd
00000190: dace efbc c58a dcbd f4a0 fabc 8f01 de3b
000001a0: 30b2 c2bb d00e c5bc b952 4a3d 2a3c 01bb
000001b0: 89d9 aabc 0d7a 473d b96d e13b fc91 0cbd
000001c0: 71de 87bc 4126 c5be 29e6 903e e2b9 1cbf
000001d0: dfcf 2bbe e4d6 16be e726 563d a10f e73d
000001e0: 87f8 3fbd 87b6 e93d fb31 93bc bbc7 59bd
000001f0: e1c9 843c 3c0e a63c 4e9e d93c b83b fa3b
00000200: bc2f 62b9 bea0 31be 5eea 03bd a7cb cb3c
00000210: 7984 8b3b f958 aebd 613b bb3c 52c4 9bba
00000220: d3ed 92bc 8178 a8bc 08f0 59bd c652 2abc
00000230: 60a3 b93b 06fd f63b 305b 0c3c 3ccb babb
00000240: b41c 99ba 99f1 54bd 3fe6 3abd 8d24 dbbc
00000250: 9728 96bc cb50 78bc c742 203d 2806 25bb
00000260: ba50 563c 39ec 3ebd af04 59bd 15c4 9fb9
00000270: 5a81 e83c 4523 fabc 8db6 1a3d 1b1f bb3c
00000280: ec14 993d bdce 583b fdd3 793c dbea 39bc
00000290: 2b5c bb3c 196e 543c 49fd 8cbd 85c5 ab3b
000002a0: d0f4 6b39 0a81 a93d 2c21 0ebd 80c9 d939
000002b0: 147f 52bd 216c 35bc dc7a 62bc 36ad 383d
000002c0: ff08 12bd e520 7fbd f14d 1b3d 7f14 cbbc
000002d0: 4479 ed3c d170 2f3c 490f 863d 9111 fcbb
000002e0: f3d8 3b3c 07e5 94bc d2aa 863c 71be 30bb
000002f0: a438 9a3d 1588 a1bc 1294 af3c b78b 723c
00000300: 1887 d63c ba71 92bd fee5 8bbd 450a d03c
00000310: 07c4 173d 9c05 bfbd 6953 9d3c a841 0ebc
00000320: c466 77bc 8573 8bbd 0a67 05bd a466 0bbc
00000330: 9ec4 5dbb 0775 e13c 0149 3b3c b185 32bd
00000340: 0f3a 193c c148 213e 68a1 9e3d 5562 0bbe
00000350: 78ec 083e b6c6 e2be 5826 46bc 1180 fd3c
00000360: 1c53 7e3a be13 21be a37a c13b b940 a9bc
00000370: d6d2 553d fced 60be e297 d83c e8aa 0bbd
00000380: 9138 6ebc 598a 26bd da06 28bd 4e53 113c
00000390: 2aa0 b33b 2980 a9bd 31f8 fe3c 95d2 b6bb
000003a0: 90d8 1e3b 06e8 a7bc 63c3 653d 6f67 6cbb
000003b0: 2660 4bbc 6dfb d93b c8a7 acbc 5471 5abd
000003c0: a298 573c 4d8e b13c 6adb cf3b 8311 19bd
000003d0: 42e6 473d 3d4f 573a 9ccf 7dbd e9ad daba
000003e0: 4979 bf3b 7384 b33b d75c 933d 24af 873b
000003f0: a1aa 07bd 5f82 05bd 35e0 10bb 916c 16bd

wavenet.conv_layers.1.skip_conv.bias f4 [16]
0.00814165 -0.013130321 0.22001255 0.008601678 0.012057617 -0.011997047 -0.004273634 0.031755686
0.00627871 0.015059843 -0.0056328624 0.022986202 0.004584637 0.0051010135 0.005985675 0.008585799
00000000: 8e64 053c 8f20 57bc f84a 613e 0dee 0c3c
00000010: 508d 453c 438f 44bc d709 8cbb 4012 023d
00000020: a3bd cd3b 8fbd 763c e093 b8bb 8f4d bc3c
00000030: b93a 963b 6726 a73b 7b23 c43b 73ab 0c3c

wavenet.conv_layers.1.out_conv.weight f4 [16, 16, 1]
0.02300098 0.0032099881 0.28474417 0.0066613075 -0.012403659 -0.0073279757 -0.0006871135 0.15228982
0.018759115 0.00081631215 -0.0073355427 0.007559557 0.021921838 0.032146957 0.009567712 -0.0044131977
0.021913908 0.011003688 -0.0403478 0.0037704061 -0.020343078 -0.005514993 0.0022516043 0.07726361
0.028503722 -0.019557828 -0.019273434 -0.02050105 0.038847957 0.019366436 0.017585177 -0.04685315
0.025333509 0.013183912 -0.17400843 0.013601367 -0.02336897 0.0060220016 0.007870993 -0.021662993
0.017569141 0.0093382355 -0.0020042579 -0.008988819 0.023917427 -0.00494762 0.0040430822 -0.024831396
0.0069527733 0.023556313 -0.3264377 -0.004821668 -0.03626933 0.01714921 0.014461914 0.018820906
0.016791191 -0.012576665 0.009121123 -0.0409386 0.020318702 0.016683059 -0.012609652 -0.014090882
0.027636476 0.0076601487 0.22377788 0.021701261 -0.015263804 0.0013260058 -0.012914209 0.054071687
0.055072088 -0.012182624 -0.009761448 0.0057763327 0.045922432 -0.016210454 0.01972577 -0.04296458
-0.05229578 0.031129945 0.8740205 -0.021125998 -0.020966973 0.040128782 0.021858921 0.029692765
-0.038188193 -0.058003772 0.03316357 -0.08733834 -0.050204627 0.060060393 -0.024928998 -0.0078149475
0.0064843292 0.0036104356 -0.5134747 0.013617913 -0.013725649 0.008376851 0.010567277 0.12175214
0.007720397 0.0023408076 -0.004233235 -0.008715275 0.0062789423 0.017513411 0.000261781 -0.004116522
0.018833147 -0.046687342 -0.29203197 0.02560355 0.053614095 -0.03550954 -0.016246056 -0.062269103
-0.019633545 0.064002044 -0.019306246 0.10468948 -0.01056529 -0.030464271 0.013865056 0.050436176
-0.041399125 -0.025360063 -0.038553223 -0.017134218 0.012781751 -0.008384279 -0.0024244892 -0.052892655
-0.04387509 0.024930213 0.0014556161 -0.015401245 -0.025297413 -0.061688546 -0.03497581 0.02112998
0.0042938734 -0.007961245 0.037307113 0.0027263204 0.001700339 -0.0013429524 -0.006601136 -0.024464823
0.0014301345 0.021252917 -0.010496126 0.016996631 0.010907041 -0.041764352 -0.008236759 0.0017785975
0.016370881 0.039084863 0.9731 -0.008587543 -0.03089535 0.007999495 0.0031438556 0.12107326
0.023818357 -0.033857826 -0.0045952424 -0.023287486 0.026328936 0.039823085 0.013155118 -0.017428542
0.00440113 0.00036055624 0.46414736 0.001444817 -0.0028395657 -0.00025115712 -0.000115129355 -0.029804703
-0.006439301 0.018907115 -0.0063391463 0.009838389 -0.016978959 0.023487564 -0.00894588 0.017427426
-0.003749798 -0.0005720055 0.3332401 0.007296184 -0.007625906 -0.000619217 -0.0054806923 -0.08041152
0.0046597435 0.004670184 0.011440243 -0.023231996 -0.006659016 -0.027393285 0.0013855203 -0.0052496763
0.020122984 0.029541684 0.23945037 0.012116394 -0.027952025 0.00058748067 -0.018256515 0.035918295
0.035138633 -0.03377403 0.0040948256 -0.034442425 0.028212994 0.025248643 0.023273494 -0.019229697
-0.16019072 -0.0057203425 -0.099232405 -0.06066935 0.043838523 0.046768803 -0.028590495 -0.49665663
-0.14547437 -0.06389253 0.038760543 -0.088614926 -0.11891302 -0.21266563 -0.08788039 -0.024991497
-0.0024934446 0.0066069895 1.6461434 -0.0041579786 -0.02320707 0.017390091 0.012418813 0.05226651
0.01513086 -0.006603409 0.010602704 -0.026045239 0.0117345 -0.0143501805 -0.0021643862 0.0037576968
00000000: 8d6c bc3c aa5e 523b fdc9 913e 1947 da3b
00000010: b738 4bbc 841f f0bb 681f 34ba ddf1 1b3e
00000020: b7ac 993c c8fd 553a fe5e f0bb 29b6 f73b
00000030: 6d95 b33c 87ac 033d e5c1 1c3c 969c 90bb
00000040: cc84 b33c d048 343c bc43 25bd eb18 773b
00000050: 87a6 a6bc 1db7 b4bb a78f 133b 623c 9e3d
00000060: a380 e93c bd37 a0bc 52e3 9dbc d1f1 a7bc
00000070: 091f 1f3d 5ca6 9e3c ca0e 903c 17e9 3fbd
00000080: 3888 cf3c 5601 583c 442f 32be 45d8 5e3c
00000090: 4870 bfbc 3654 c53b 56f5 003c 9776 b1bc
000000a0: 29ed 8f3c 66ff 183c de59 03bb d745 13bc
000000b0: 7bee c33c a51f a2bb d57b 843b 366b cbbc
000000c0: 17d4 e33b 2bf9 c03c d822 a7be 15ff 9dbb
000000d0: 268f 14bd 807c 8c3c aaf1 6c3c 4d2e 9a3c
000000e0: ae8d 893c 5b0e 4ebc c370 153c 3caf 27bd
000000f0: 6873 a63c e9aa 883c b798 4ebc 71dd 66bc
00000100: e465 e23c fc01 fb3b 0726 653e d8c6 b13c
00000110: 0915 7abc 5fcd ad3a 1e96 53bc 467a 5d3d
00000120: 4593 613d a199 47bc 7bee 1fbc 6447 bd3b
00000130: 2919 3c3d c9cb 84bc f097 a13c a1fb 2fbd
00000140: 1a34 56bd 3a04 ff3c cfbf 5f3f 6e10 adbc
00000150: eec2 abbc 145e 243d 7b11 b33c 3e3e f33c
00000160: 396b 1cbd 5d95 6dbd 86d6 073d 72de b2bd
00000170: 5ea3 4dbd e301 763d e637 ccbc 440a 00bc
00000180: 7f7a d43b 0f9d 6c3b 1473 03bf ab1d 5f3c
00000190: 8be1 60bc 0f3f 093c 5f22 2d3c 3059 f93d
000001a0: 62fb fc3b 3c68 193b f3b6 8abb 83ca 0ebc
000001b0: 96bf cd3b 4978 8f3c a73f 8939 e4e3 86bb
000001c0: f947 9a3c 3a3b 3fbd 3785 95be 89be d13c
000001d0: 749a 5b3d 7472 11bd 7316 85bc e30d 7fbd
000001e0: 87d6 a0bc 8113 833d 2228 9ebc 7067 d63d
000001f0: 0a1a 2dbc 3590 f9bc 432a 633c 2a96 4e3d
00000200: 2192 29bd e8bf cfbc fce9 1dbd 0f5d 8cbc
00000210: 8d6a 513c 375e 09bc 2ee4 1ebb f8a5 58bd
00000220: 5eb6 33bd 723a cc3c 5fca be3a 8155 7cbc
00000230: 853c cfbc 21ad 7cbd cc42 0fbd c818 ad3c
00000240: 9fb3 8c3b e26f 02bc 58cf 183d 11ac 323b
00000250: e9dd de3a 0106 b0ba 584e d8bb 746a c8bc
00000260: 5a73 bb3a 991a ae3c f1f7 2bbc 853c 8b3c
00000270: 72b3 323c 1911 2bbd 79f3 06bc d41f e93a
00000280: 3a1c 863c 7317 203d 151d 793f c4b2 0cbc
00000290: 3f18 fdbc 5010 033c 2509 4e3b 42f5 f73d
000002a0: b71e c33c 81ae 0abd b093 96bb 66c5 bebc
000002b0: c8af d73c 881d 233d 9088 573c 4dc6 8ebc
000002c0: 5b37 903b 0a09 bd39 b9a4 ed3e 0460 bd3a
000002d0: 0218 3abb bdad 83b9 9a71 f1b8 fe28 f4bc
000002e0: c600 d3bb 18e3 9a3c 9db8 cfbb 3231 213c
000002f0: 7517 8bbc fe68 c03c be91 12bc f6c3 8e3c
00000300: 2cbf 75bb a4f2 15ba 729e aa3e d414 ef3b
00000310: bce2 f9bb f352 22ba 6197 b3bb ccae a4bd
00000320: c3b0 983b 5808 993b db6f 3b3c 0751 bebc
00000330: e033 dabb e267 e0bc 599a b53a 7a05 acbb
00000340: f5d8 a43c 6701 f23c 7a32 753e d783 463c
00000350: a5fb e4bc 2901 1a3a b08e 95bc 101f 133d
00000360: 87ed 0f3d a356 0abd e32d 863b 8013 0dbd
00000370: f01e e73c 3ed6 ce3c 0ea8 be3c 9987 9dbc
00000380: 0909 24be b671 bbbb 5c3a cbbd 6d80 78bd
00000390: 0690 333d a590 3f3d 9d36 eabc c749 febe
000003a0: 3cf7 14be 16da 82bd 60c3 1e3d be7b b5bd
000003b0: ab88 f3bd 05c5 59be a2fa b3bd f8ba ccbc
000003c0: 0f69 23bb 727f d83b d4b4 d23f a73f 88bb
000003d0: c11c bebc aa75 8e3c 4778 4b3c 6815 563d
000003e0: 6de7 773c 6961 d8bb f7b6 2d3c d35c d5bc
000003f0: 0f42 403c 051d 6bbc 60d8 0dbb b143 763b

wavenet.conv_layers.1.out_conv.bias f4 [16]
0.06276889 0.021402676 -0.08613785 0.1612766 -0.118021935 0.039184373 -0.006571717 -0.024834542
0.10335144 -0.05538311 0.084023245 0.116386056 0.1378907 -0.081597246 -0.03927511 -0.17808563
00000000: fa8c 803d aa54 af3c 0b69 b0bd b125 253e
00000010: 7cb5 f1bd cb7f 203d 8f57 d7bb cf71 cbbc
00000020: eba9 d33d 66d9 62bd 6114 ac3d d05b ee3d
00000030: 3833 0d3e 751c a7bd f0de 20bd 145c 36be

wavenet.conv_layers.2.conv.weight f4 [32, 16, 3]
0.19775182 0.0043895966 0.05324864 -0.28612435 0.049615756 0.2967054 -0.16792838 0.1306301
0.346289 -0.015218202 0.16353138 0.11216721 0.078046106 0.049897365 0.1707496 -0.18224004
-0.26106477 -0.057145867 0.037454657 -0.3528999 -0.31755668 0.06762568 0.15352902 -0.45979542
0.0913457 -0.43004894 -0.13078259 0.046666265 0.13078883 0.19496426 -0.12662731 -0.0021193817
0.9005828 -0.20162372 -0.07583512 0.31795895 -0.01732683 0.06190455 -0.22962703 -0.26926234
0.17257072 0.20455003 -0.27791765 -0.49226496 0.011360317 -0.13010913 -0.0013802354 0.20593339
0.7383528 0.08271295 -0.26553056 -0.3966514 0.54339486 0.22056635 -0.6563115 -0.42608142
0.5685436 -0.13263221 0.7358185 0.3301816 -0.13575375 0.6423362 -0.19733983 -0.6636744
0.56043786 -0.55096024 0.63219506 -0.63813365 0.087087214 -0.64267695 -0.119868785 0.15592761
-1.222438 -0.50162345 0.23381375 -0.08417661 0.9138277 0.29350662 0.6703148 0.21074341
0.1761305 0.6907331 0.5875 -0.14679395 0.7512564 0.06906137 -0.34108058 -1.0190983
-0.33767495 0.13249744 0.508779 -1.0028127 0.1171977 -0.8878625 -0.9828575 -0.549269
0.14948706 -0.02970583 0.45052853 0.06673806 0.080913864 -0.2465909 0.12442885 0.17558277
-0.37123704 -0.33231935 -0.11122508 -0.11889604 -0.09363515 -0.02470821 -1.1674169 0.15803383
0.35074887 -0.78002363 -0.1551601 -0.11432928 1.0981147 -0.4892704 -0.27631497 -0.7747113
0.060429048 -0.72046953 0.20477787 -0.18123227 0.16070554 -0.23375952 0.36664987 -0.3215964
-0.35514203 0.28795427 -0.13004215 -0.21274981 0.14416875 -0.3379565 0.21260785 -0.14267455
-0.034059655 -0.7608246 0.8818564 0.030282471 0.45362374 0.28528178 0.3758558 -0.008835186
-0.22210927 0.068890065 0.12085106 0.13241707 -0.14145748 -0.36594382 0.39124575 0.029027013
-0.25933805 0.17377505 -0.08860114 -0.14492893 -0.091024674 -0.19184393 -0.19440494 -0.10853175
-0.6589313 0.7106091 -0.061294846 0.39126867 0.17341295 0.12485847 -0.22006555 -0.74195486
0.44468245 0.49320197 -0.25517142 0.22459681 -0.109584294 -0.06909703 -0.19976749 0.017580654
-0.54809356 -0.055170376 -0.042486604 -0.011766563 -0.20063926 -0.118280604 0.23847522 0.46364638
0.11372893 -0.37898192 0.76829326 0.6774922 0.19459698 0.151816 0.1504746 0.43793792
-0.12928997 -0.22303657 0.15694681 0.28446716 0.11677643 -0.20590408 0.4781769 0.19887097
-0.086104274 0.24744037 0.27427366 -0.27125397 -0.5568628 -0.20721969 -0.2847094 -0.17404142
0.48252574 -0.53251255 -0.09481501 -0.3024658 0.5905205 -0.3239096 -0.3439614 -0.18770875
0.27563706 0.027762298 0.041307542 0.19758253 0.248656 -0.026203541 0.5550763 0.15416616
0.0001424415 0.14247787 0.15550083 -0.20060448 -0.04195273 -0.09069751 0.2395567 0.18248631
0.13403586 -0.4178427 0.058324058 -0.05133289 -0.008818652 0.27985463 0.36664826 -0.13746892
-0.1190064 -0.23511197 -0.13085946 -0.09449941 0.25895295 -0.38964742 0.12708917 0.11021114
-0.3256802 -0.0035517279 0.21798952 -0.25432783 0.39138898 -0.080602534 0.52577335 2.0374672
00000000: 747f 4a3e 9bd6 8f3b 3f1b 5a3d e47e 92be
00000010: e439 4b3d c5e9 973e 6bf5 2bbe e6c3 053e
00000020: cb4c b13e c455 79bc c574 273e ecb7 e53d
00000030: a3d6 9f3d 2e61 4c3d fcd8 2e3e 229d 3abe
00000040: 48aa 85be c911 6abd 0e6a 193d 4caf b4be
00000050: ca96 a2be 557f 8a3d b636 1d3e 4e6a ebbe
00000060: 7413 bb3d 602f dcbe dfeb 05be 2025 3f3d
00000070: 82ed 053e b6a4 473e 97aa 01be 53e5 0abb
00000080: 988c 663f 7376 4ebe 724f 9bbd 84cb a23e
00000090: fff0 8dbc a08f 7d3d 5923 6bbe c1dc 89be
000000a0: 61b6 303e 9075 513e 394b 8ebe 270a fcbe
000000b0: 9f20 3a3c 543b 05be 04e9 b4ba 34e0 523e
000000c0: b004 3d3f 6865 a93d 9ff3 87be e415 cbbe
000000d0: ed1b 0b3f 25dc 613e 0804 28bf 5827 dabe
000000e0: 138c 113f bdd0 07be 9a5e 3c3f 900d a93e
000000f0: 0803 0bbe 2570 243f 7413 4abe 91e6 29bf
00000100: db78 0f3f bb0b 0dbf 89d7 213f ba5c 23bf
00000110: c85a b23d 7a86 24bf c47d f5bd 7dab 1f3e
00000120: d978 9cbf 656a 00bf df6c 6f3e c964 acbd
00000130: 9df0 693f 8046 963e c099 2b3f 1fcd 573e
00000140: 8e5b 343e e2d3 303f 6666 163f 2751 16be
00000150: 5752 403f 0c70 8d3d 1da2 aebe d071 82bf
00000160: bbe3 acbe 69ad 073e 573f 023f 2b5c 80bf
00000170: 5905 f03d f54a 63bf 8d9c 7bbf e59c 0cbf
00000180: 2313 193e a459 f3bc adab e63e f7ad 883d
00000190: 2bb6 a53d 5382 7cbe 8ed4 fe3d f8cb 333e
000001a0: c812 bebe c325 aabe fac9 e3bd c47f f3bd
000001b0: c9c3 bfbd df68 cabc eb6d 95bf 9fd3 213e
000001c0: 5b95 b33e a1af 47bf 4ae2 1ebe 7825 eabd
000001d0: 068f 8c3f a681 fabe 2879 8dbe 7b53 46bf
000001e0: 7384 773d b170 38bf 4ab1 513e f494 39be
000001f0: fe8f 243e a85e 6fbe 88b9 bb3e 49a8 a4be
00000200: 2dd5 b5be be6e 933e c529 05be 16db 59be
00000210: f9a0 133e a208 adbe dfb5 593e 4719 12be
00000220: 2382 0bbd 67c5 42bf 57c1 613f f212 f83c
00000230: 5f41 e83e 7410 923e 2c70 c03e 75c1 10bc
00000240: 9d70 63be 3c16 8d3d c380 f73d 5798 073e
00000250: 3bda 10be fd5c bbbe 5d51 c83e 0fca ed3c
00000260: f5c7 84be 16f2 313e 8474 b5bd 4068 14be
00000270: 256b babd bc72 44be 1712 47be e545 debd
00000280: b9af 28bf 7aea 353f 4e10 7bbd 5e54 c83e
00000290: 2a93 313e ccb5 ff3d dd58 61be c1f0 3dbf
000002a0: 6bad e33e f884 fc3e d4a5 82be b5fc 653e
000002b0: bb6d e0bd be82 8dbd d98f 4cbe 4e05 903c
000002c0: dc4f 0cbf 55fa 61bd 6f06 2ebd 8bc8 40bc
000002d0: 6174 4dbe 1a3d f2bd d932 743e 0f63 ed3e
000002e0: b7ea e83d eb09 c2be deae 443f 2170 2d3f
000002f0: 6e44 473e a775 1b3e 0316 1a3e 6639 e03e
00000300: 9764 04be b363 64be aab6 203e aea5 913e
00000310: 7b28 ef3d 85d8 52be 9ad3 f43e d5a4 4b3e
00000320: 7057 b0bd 0261 7d3e 996d 8c3e cde1 8abe
00000330: 8f8e 0ebf 6631 54be 6ec5 91be ea37 32be
00000340: 9d0d f73e be52 08bf 5f2e c2bd ccdc 9abe
00000350: 5a2c 173f 7bd7 a5be b51b b0be b936 40be
00000360: 4d20 8d3e c26d e33c 1932 293d 1353 4a3e
00000370: ae9f 7e3e cfa8 d6bc 7b19 0e3f bcdd 1d3e
00000380: 595c 1539 b8e5 113e 9c3b 1f3e 436b 4dbe
00000390: a0d6 2bbd 9ebf b9bd 5a4e 753e b1dd 3a3e
000003a0: b240 093e 7aef d5be 35e5 6e3d 7042 52bd
000003b0: 1b7c 10bc 1b49 8f3e 52b9 bb3e a7c4 0cbe
000003c0: a1b9 f3bd 31c1 70be 0600 06be e888 c1bd
000003d0: 7b95 843e de7f c7be aa23 023e 61b6 e13d
000003e0: 8ebf a6be 1bc4 68bb a538 5f3e 4237 82be
000003f0: 2364 c83e f112 a5bd 1599 063f dd65 0240

wavenet.conv_layers.2.conv.bias f4 [32]
-0.19186874 -0.069263786 0.020371465 -0.0027168402 0.0114829615 -0.16499902 -0.23219281 0.057929046
-0.17861374 0.04716678 -0.09362766 0.09745365 0.035206858 0.084624276 0.022690997 0.030496126
-2.334944 -0.8964614 -1.4982721 -1.157183 -3.6789165 -1.6047999 -1.609738 -1.8964615
-0.5211156 -0.552943 -1.1812977 -0.8535178 -0.70473 -2.0835567 -1.721494 0.9843007
00000000: 3d79 44be 2cda 8dbd 0fe2 a63c 040d 32bb
00000010: 0823 3c3c 81f5 28be f4c3 6dbe 0247 6d3d
00000020: 85e6 36be f431 413d dcbf bfbd c795 c73d
00000030: 1135 103d 7e4f ad3d 78e2 b93c 03d3 f93c
00000040: b96f 15c0 7f7e 65bf 61c7 bfbf 931e 94bf
00000050: 5e73 6bc0 156a cdbf e50b cebf 40bf f2bf
00000060: d567 05bf ac8d 0dbf c334 97bf 2480 5abf
00000070: 2f69 34bf fe58 05c0 ea59 dcbf 21fb 7b3f
