ht1.ckpt (torch, 642012 bytes, 437 tensors)

wavenet.input_conv.weight f4 [16, 1, 1]
1.0317881 -0.35479468 0.8272082 -0.5410529 0.5747503 -1.2083806 1.3220482 0.21242641
-0.87256247 0.91441417 -0.46975383 -0.53211546 0.423142 0.84753066 1.0562569 -0.7087282
00000000: a211 843f a6a7 b5be ebc3 533f 7182 0abf
00000010: d622 133f 37ac 9abf e038 a93f 4f86 593e
00000020: 4160 5fbf 0c17 6a3f 9383 f0be b838 08bf
00000030: 11a6 d83e c5f7 583f 6d33 873f 366f 35bf

wavenet.input_conv.bias f4 [16]
-0.16324286 -0.14018606 -0.4469196 0.89046013 0.045276236 -0.91997665 -0.13102402 -0.3477895
0.2086209 0.10557181 -0.90375835 -0.10497218 0.27099487 -0.88828135 0.16574496 0.7240462
00000000: 2329 27be ef8c 0fbe a5d2 e4be 32f5 633f
00000010: 9373 393d 9783 6bbf 292b 06be 7711 b2be
00000020: b8a0 553e 0836 d83d b55c 67bf a8fb d6bd
00000030: d7bf 8a3e 6866 63bf 0cb9 293e 175b 393f

wavenet.conv_layers.0.conv.weight f4 [32, 16, 2]
-0.27566767 0.16521542 0.06584321 0.03227492 -0.020912599 -0.009014547 0.12330928 -0.15482767
-0.22829688 0.1383847 0.09028783 -0.089914285 -0.2502944 0.17051627 0.1279961 0.054883655
-0.030830398 -0.08430157 -0.22005923 -0.079355285 0.027552208 0.018068964 0.04375594 0.06973699
-0.1472191 0.16702856 0.006643821 -0.039774805 -0.19578472 -0.076229066 0.09049097 0.07255997
-0.05437158 -0.000619876 0.1423938 0.084602274 -0.19992803 -0.03143349 0.049343124 -0.09081266
-0.2581768 0.10762938 -0.1285414 -0.1476468 -0.23200947 -0.19831382 -0.01690504 0.055339336
0.13825876 -0.12044362 -0.05074398 0.0732117 0.13871334 -0.11685775 0.15098901 0.19931611
-0.16425748 0.12065519 0.11793018 -0.08215108 -0.25254208 -0.18576704 0.007054665 -0.015884452
0.0027476654 0.15064934 0.14025132 0.0035837137 0.15831646 -0.14248194 -0.0022724664 -0.014386715
-0.041600816 -0.07822908 -0.13215686 -0.056367524 0.1519427 0.25087008 0.12416277 0.15170376
0.0034195557 -0.08129612 -0.07128611 -0.049657322 -0.09286014 0.038163155 0.03216325 -0.11688106
-0.016872728 0.0029489186 -0.012696855 0.09333739 0.120407164 0.06333553 -0.025665078 -0.026053421
0.011297899 -0.09520068 -0.06122915 -0.04006614 0.069919504 0.17288074 -0.035138432 0.06895028
-0.093659654 0.17950682 -0.18045916 -0.09115796 0.046240292 0.1705769 0.007860312 -0.02644889
-0.13135195 -0.15679216 -0.105350256 0.22166449 -0.16583557 -0.016254751 0.05209549 0.049757708
-0.055448018 0.14174378 0.061905842 0.09424972 0.11520515 -0.06905396 0.015387048 -0.15465549
0.039937735 0.13210607 0.04001001 -0.22414431 0.18715103 -0.00085630023 0.039698556 -0.023996685
0.110854425 0.24872932 -0.02163535 0.019064251 0.16010031 0.14075367 0.11299497 -0.08487754
0.036548186 -0.048288625 0.0149195315 0.23404346 -0.0012402701 0.002928806 0.01681942 -0.21770957
0.1685494 0.05654923 -0.12496821 -0.017225021 -0.035023846 0.19593145 0.040555358 -0.14451191
0.16844296 0.09515726 0.034023635 0.022107244 -0.12214668 -0.12537886 0.1069299 -0.18823859
-0.13808645 0.26643643 -0.04517186 -0.19269018 0.17085208 0.1203692 0.03524099 0.105741076
0.068822 -0.20886426 0.034968257 0.13172296 0.1350615 -0.105368406 0.06981959 0.018213795
-0.13185227 0.10636593 0.10418749 0.045595445 -0.06624328 0.26121205 -0.1697923 0.08338391
-0.23974653 -0.040493753 0.13210733 0.16230413 -0.20031804 0.1034204 0.079133116 0.0023630862
-0.007179305 -0.09697963 0.0013401981 0.174112 -0.2449625 0.07146045 -0.09910131 0.14150943
0.026446393 -0.101234354 -0.14844267 0.12066051 -0.08807844 -0.050719406 0.16575634 0.024833083
-0.17111605 -0.012890372 0.123819456 0.027668158 -0.1487441 -0.13089532 0.08618996 0.073878475
-0.114392824 -0.112342805 -0.1704401 -0.050477993 0.045020558 0.022434795 -0.008445493 -0.03211169
0.08202105 0.10580271 -0.14921898 0.09348877 0.1490361 0.05897451 -0.04161991 0.015162897
0.010598121 0.04981004 -0.0010233336 0.15939207 -0.15008391 0.16551717 -0.22830549 -0.14008589
0.1949136 0.09337232 -0.024872981 -0.007458312 0.18980832 0.15930921 -0.10991989 -0.122308806
00000000: 5024 8dbe 3b2e 293e ced8 863d b532 043d
00000010: e650 abbc c0b1 13bc 9389 fc3d 258b 1ebe
00000020: a8c6 69be b8b4 0d3e d3e8 b83d fb24 b8bd
00000030: 9626 80be d19b 2e3e 6911 033e afcd 603d
00000040: 0890 fcbc 4da6 acbd 3557 61be 0685 a2bd
00000050: 2bb5 e13c 5d05 943c 6e39 333d 44d2 8e3d
00000060: 9bc0 16be 8909 2b3e 69b4 d93b e8ea 22bd
00000070: ca7b 48be fc1d 9cbd 5453 b93d 529a 943d
00000080: bcb4 5ebd 2d7f 22ba aecf 113e f543 ad3d
00000090: efb9 4cbe 67c0 00bd 041c 4a3d fdfb b9bd
000000a0: c02f 84be cb6c dc3d 5ba0 03be b930 17be
000000b0: e493 6dbe c712 4bbe 707c 8abc 80ab 623d
000000c0: b493 0d3e 25ab f6bd ebd8 4fbd 04f0 953d
000000d0: df0a 0e3e 1e53 efbd dd9c 1a3e 8619 4c3e
000000e0: 1d33 28be 111a f73d 6185 f13d d33e a8bd
000000f0: 324d 81be b739 3ebe d22a e73b 1c20 82bc
00000100: 2d12 343b d243 1a3e 0b9e 0f3e bddc 6a3b
00000110: b61d 223e c9e6 11be a9ed 14bb 42b6 6bbc
00000120: 9e65 2abd 9136 a0bd 2154 07be a2e1 66bd
00000130: de96 1b3e 0b72 803e 0d49 fe3d 3b58 1b3e
00000140: a01a 603b 957e a6bd 74fe 91bd 7a65 4bbd
00000150: 752d bebd f850 1c3d 9dbd 033d 565f efbd
00000160: ad38 8abc a542 413b 7806 50bc ac27 bf3d
00000170: 0898 f63d 0fb6 813d 923f d2bc fc6d d5bc
00000180: d31a 393c 93f8 c2bd 6bcb 7abd 651c 24bd
00000190: f531 8f3d a607 313e 51ed 0fbd ce35 8d3d
000001a0: a2d0 bfbd a3d0 373e 49ca 38be 06b1 babd
000001b0: 7666 3d3d b6ab 2e3e 8ac8 003c 58ab d8bc
000001c0: 2081 06be 208e 20be e0c1 d7bd 04fc 623e
000001d0: cdd0 29be af28 85bc 1562 553d bdce 4b3d
000001e0: 761d 63bd 4825 113e fb90 7d3d ff05 c13d
000001f0: adf0 eb3d 2a6c 8dbd f519 7c3c 025e 1ebe
00000200: c095 233d d046 073e 89e1 233d 1686 65be
00000210: 85a4 3f3e 5679 60ba f49a 223d b294 c4bc
00000220: a507 e33d e6b2 7e3e 9e3c b1bc a22c 9c3c
00000230: 56f1 233e bb21 103e e869 e73d 47d4 adbd
00000240: 8db3 153d 4bca 45bd 0d71 743c 17a9 6f3e
00000250: 8f90 a2ba 36f1 3f3b e1c8 893c 42ef 5ebe
00000260: 3798 2c3e 2aa0 673d 55ef ffbd 7d1b 8dbc
00000270: 2a75 0fbd 41a2 483e 601d 263d eefa 13be
00000280: 507c 2c3e cfe1 c23d 5e5c 0b3d 401a b53c
00000290: 0a28 fabd 5163 00be 10fe da3d 9ec1 40be
000002a0: 8966 0dbe 5b6a 883e 2106 39bd 9350 45be
000002b0: d9f3 2e3e 2184 f63d db58 103d c78e d83d
000002c0: 8cf2 8c3d 83e0 55be e03a 0f3d 62e2 063e
000002d0: 904d 0a3e 64cb d7bd 93fd 8e3d 1935 953c
000002e0: 4804 07be 61d6 d93d 4060 d53d 4ac2 3a3d
000002f0: 8faa 87bd 96bd 853e 08de 2dbe 2fc5 aa3d
00000300: 1d80 75be c7dc 25bd 2547 073e 0e33 263e
00000310: 2c20 4dbe 13ce d33d 8b10 a23d 02de 1a3b
00000320: 6040 ebbb 429d c6bd 96a9 af3a 6b4a 323e
00000330: 73d7 7abe db59 923d a1f5 cabd d9e7 103e
00000340: 1ba6 d83c f553 cfbd 5b01 18be dc1c f73d
00000350: 7862 b4bd 27bf 4fbd 08bc 293e c06e cb3c
00000360: 0c39 2fbe 2432 53bc 0e95 fd3d 55a8 e23c
00000370: 6050 18be 6c09 06be 5d84 b03d 994d 973d
00000380: c946 eabd fc13 e6bd d987 2ebe 03c2 4ebd
00000390: 7a67 383d 2dc9 b73c f75e 0abc 8c87 03bd
000003a0: a7fa a73d 17af d83d dccc 18be 0a77 bf3d
000003b0: eb9c 183e 418f 713d a479 2abd cd6d 783c
000003c0: bea3 2d3c 9d05 4c3d 6121 86ba ad37 233e
000003d0: 99af 19be 557d 293e eac8 69be ad72 0fbe
000003e0: 6e97 473e fd39 bf3d 6cc2 cbbc db64 f4bb
000003f0: 1d5d 423e f421 233e ae1d e1bd 0a7d fabd

wavenet.conv_layers.0.conv.bias f4 [32]
0.08291574 -0.12965581 0.07835181 -0.03212929 0.0027756083 0.14382336 0.08760265 -0.07878256
-0.060001314 -0.06293194 0.06308681 -0.04361014 0.1124738 0.004376916 0.043466263 -0.0971116
0.14306432 0.21870013 -0.18999153 -0.1028204 -0.028343143 0.1023484 0.28586596 -0.045245353
0.039101038 -0.11994728 -0.0706311 -0.11858517 -0.17621543 -0.04754037 0.2943209 0.26522872
00000000: bacf a93d 7ec4 04be ea76 a03d 019a 03bd
00000010: fbe6 353b 6e46 133e 0569 b33d c058 a1bd
00000020: f0c3 75bd 76e2 80bd a833 813d 8ca0 32bd
00000030: aa58 e63d 3c6c 8f3b ae09 323d 72e2 c6bd
00000040: 747f 123e edf2 5f3e 248d 42be 8093 d2bd
00000050: e12f e8bc 0a9c d13d 065d 923e 3153 39bd
00000060: 6928 203d eba6 f5bd 0aa7 90bd c8dc f2bd
00000070: d171 34be b1b9 42bd 3bb1 963e 0fcc 873e

wavenet.conv_layers.0.skip_conv.weight f4 [16, 16, 1]
0.01612121 -0.109975226 0.10237821 0.056949858 -0.07438443 0.2794628 -0.26428336 -0.27631897
-0.009611852 -0.07079036 -0.17723754 0.1550483 -0.037783664 0.15753935 -0.12849465 0.16675615
-0.0046327584 -0.3144962 0.029891755 -0.15629022 0.05468392 -0.05479387 -0.040576037 0.06762557
0.30995086 -0.046842948 -0.0981792 -0.028100267 -0.1480384 -0.07969045 -0.13738753 -0.19675486
0.25786698 0.057336435 -0.083378606 0.13496046 -0.02516726 0.17996301 0.39349452 0.074903235
0.20564784 -0.033674125 -0.15071444 0.3402717 0.28397802 0.09767122 -0.028218525 0.2107719
0.082943 0.360127 -0.13557957 -0.06668807 0.1938853 -0.014261469 0.107696004 0.036887515
-0.20891163 -0.11342485 -0.026812643 0.2986773 0.38397148 0.24958605 -0.12760617 -0.024451533
0.14433621 0.30531985 0.10499719 -0.16549067 -0.25960666 -0.14975025 0.21109241 0.00042898778
-0.21984461 -0.0012718358 -0.02281405 0.16240256 0.13366748 0.24005245 0.17510775 0.007004249
0.17772451 -0.15558127 -0.0862913 -0.029787203 -0.16585797 0.24863899 -0.017306795 -0.15191147
-0.030231146 0.16368243 -0.009245057 0.084081545 -0.2872635 0.15848055 -0.15132727 -0.117656335
-0.11070666 -0.031040087 -0.06720383 -0.10573955 -0.06904567 -0.20695549 0.100284144 0.10297817
0.055474263 -0.23956452 0.04861527 -0.15130192 -0.04159152 -0.22955956 0.2369748 -0.0039983457
-0.07273067 -0.043562543 -0.090129666 0.00831401 0.15505843 -0.0555896 0.24007049 0.22688253
0.07887322 0.1866183 -0.07866476 0.16317232 -0.19617121 0.19603373 -0.100079514 0.13834657
0.07431004 -0.0121218255 -0.019065134 -0.20602241 -0.26014927 -0.30694407 0.1648036 -0.23977539
-0.107490234 -0.2561695 -0.18010683 0.15962408 0.22186287 -0.23435338 0.16718234 0.31165117
0.23315237 0.043212783 0.101625144 0.020412412 0.08347174 0.2381147 -0.007040646 -0.036924817
0.22516406 -0.18413715 0.2988676 0.023478622 -0.053746264 0.09601653 -0.25983 -0.23729008
-0.22551635 -0.34486306 -0.0034342941 -0.15164836 0.19741577 -0.11625492 -0.123404406 0.35305223
0.050523046 0.063825876 0.109392986 0.02148952 -0.17656057 -0.27706727 -0.0046342583 -0.19917312
0.2756972 0.023614272 -0.13542908 -0.26722178 -0.32619438 -0.08781465 0.25698134 -0.3930569
-0.14505976 0.0117579615 -0.28759664 0.3208898 0.0436261 0.19185461 -0.012147715 0.10600375
-0.0816603 -0.123264596 -0.22978468 -0.044193048 -0.16007695 0.18214653 -0.08513733 -0.14753574
-0.07106256 -0.21858475 0.20784886 -0.06329299 0.10173037 0.23809618 -0.031096 -0.07176079
0.18427306 0.045881487 -0.24216515 -0.28784075 -0.085834846 0.008404318 0.016204549 -0.032440633
-0.09353546 -0.12196904 -0.14413081 0.041257378 -0.08970056 0.043042555 0.19897129 0.029113682
0.16074622 0.25477344 -0.37521046 -0.27336925 -0.31693363 -0.2860507 0.27540848 0.056262173
-0.033385556 -0.19380102 -0.03615866 0.27074113 0.041221753 0.2620904 0.29056948 0.074988216
0.018932557 0.2920722 -0.09803435 0.024587872 -0.19755049 -0.26286444 0.33480164 -0.34446284
-0.28428647 -0.12706256 -0.04060633 0.13366193 0.20251107 0.17920478 0.27045333 0.31813985
00000000: a110 843c b13a e1bd abab d13d 4144 693d
00000010: dd56 98bd c015 8f3e 2650 87be ae79 8dbe
00000020: 077b 1dbc 89fa 90bd c27d 35be fbc4 1e3e
00000030: 0bc3 1abd ff51 213e 1a94 03be 20c2 2a3e
00000040: 65ce 97bb a505 a1be 8edf f43c 8b0a 20be
00000050: 3ffc 5f3d 896f 60bd 0f33 26bd 467f 8a3d
00000060: e1b1 9e3e 64de 3fbd 2d12 c9bd 8832 e6bc
00000070: 6197 17be bf34 a3bd 51af 0cbe 1b7a 49be
00000080: 2407 843e 9cd9 6a3d 67c2 aabd 1333 0a3e
00000090: 922b cebc 3948 383e 1d78 c93e de66 993d
000000a0: 5995 523e e1ed 09bd e354 1abe 1838 ae3e
000000b0: 9165 913e d907 c83d 892a e7bc 97d4 573e
000000c0: 05de a93d 9162 b83e 5fd5 0abe c193 88bd
000000d0: de89 463e f0a8 69bc b98f dc3d 5d17 173d
000000e0: eeec 55be 4a4b e8bd 30a6 dbbc 3bec 983e
000000f0: e997 c43e 7c93 7f3e 31ab 02be 954e c8bc
00000100: dfcc 133e e252 9c3e c408 d73d 6376 29be
00000110: 2aeb 84be 2158 19be 9c28 583e c4e9 e039
00000120: f21e 61be bab3 a6ba 88e4 babc db4c 263e
00000130: 21e0 083e 4fd0 753e 724f 333e e683 e53b
00000140: 6afd 353e b250 1fbe 7eb9 b0bd 4b04 f4bc
00000150: acd6 29be 389b 7e3e fbc6 8dbc ae8e 1bbe
00000160: 4fa7 f7bc 5e9c 273e 9478 17bc f232 ac3d
00000170: 3414 93be ba48 223e 89f5 1abe cef5 f0bd
00000180: 2cba e2bd c847 febc 29a2 89bd fa8d d8bd
00000190: d167 8dbd 24ec 53be c661 cd3d 38e6 d23d
000001a0: fb38 633d 6750 75be ce20 473d e4ee 1abe
000001b0: df5b 2abd a911 6bbe 86a9 723e 8e04 83bb
000001c0: d1f3 94bd a36e 32bd e795 b8bd 7c37 083c
000001d0: a3c7 1e3e ecb1 63bd 0ad5 753e e553 683e
000001e0: 4888 a13d de18 3f3e fd1a a1bd a516 273e
000001f0: 1be1 48be 11bd 483e 7df6 ccbd b9aa 0d3e
00000200: dd2f 983d 9f9a 46bc 7c2e 9cbc 8af7 52be
00000210: 4932 85be c627 9dbe 46c2 283e ae87 75be
00000220: d723 dcbd a628 83be ed6d 38be 7f74 233e
00000230: 0530 633e 55fa 6fbe d931 2b3e be90 9f3e
00000240: 7fbf 6e3e e3ff 303d d820 d03d ee37 a73c
00000250: 3bf3 aa3d 57d4 733e 38b5 e6bb 7a3e 17bd
00000260: 6891 663e 738e 3cbe 2d05 993e 3d56 c03c
00000270: 0b25 5cbd 51a4 c43d 7008 85be 2cfc 72be
00000280: c2ed 66be e491 b0be e511 61bb b549 1bbe
00000290: 5c27 4a3e 0f17 eebd 73bb fcbd 43c3 b43e
000002a0: 41f1 4e3d 24b7 823d 6e09 e03d ca0a b03c
000002b0: 4bcc 34be c3db 8dbe fada 97bb 0af4 4bbe
000002c0: 2f28 8d3e b872 c13c ecad 0abe 4bd1 88be
000002d0: f302 a7be 2bd8 b3bd 0f93 833e c13e c9be
000002e0: 8c8a 14be 77a4 403c de3f 93be ab4b a43e
000002f0: 48b1 323d 8975 443e 3607 47bc 7e18 d93d
00000300: 843d a7bd 2672 fcbd ad4c 6bbe c503 35bd
00000310: 36eb 23be 9f84 3a3e 7b5c aebd 9c13 17be
00000320: 3f89 91bd aed4 5fbe 55d6 543e c19f 81bd
00000330: 0358 d03d 7ccf 733e 0abd febc 52f7 92bd
00000340: 14b2 3c3e 3aee 3b3d 24fa 77be dd5f 93be
00000350: 2eca afbd 44b2 093c 67bf 843c 78e0 04bd
00000360: 858f bfbd e7ca f9bd 0797 13be 7ffd 283d
00000370: edb4 b7bd 644d 303d 21bf 4b3e d17f ee3c
00000380: a89a 243e aa71 823e 961b c0be 0ef7 8bbe
00000390: 2045 a2be 3d75 92be 5702 8d3e 2a73 663d
000003a0: 4bbf 08bd c673 46be 1a1b 14bd 959e 8a3e
000003b0: 24d8 283d b730 863e 86c5 943e 6c93 993d
000003c0: 7318 9b3c 7d8a 953e 3cc6 c8bd 816c c93c
000003d0: ad4a 4abe 2b96 86be 1f6b ab3e 6f5d b0be
000003e0: ff8d 91be b01c 02be d352 26bd acde 083e
000003f0: 105f 4f3e 7581 373e dc78 8a3e 3ae3 a23e

wavenet.conv_layers.0.skip_conv.bias f4 [16]
0.08390494 -0.053327013 -0.05670726 -0.058549993 -0.23265727 0.18134439 0.07401642 -0.01435006
0.07385725 -0.15194747 0.16144688 -0.14664453 -0.22994092 -0.036834676 -0.022558583 -0.026748847
00000000: 5ad6 ab3d 6d6d 5abd df45 68bd 1ed2 6fbd
00000010: b53d 6ebe 58b2 393e ec95 973d 841c 6bbc
00000020: 7842 973d 1e98 1bbe 5552 253e fc29 16be
00000030: a275 6bbe f5df 16bd c7cc b8bc 6620 dbbc

wavenet.conv_layers.0.out_conv.weight f4 [16, 16, 1]
-0.048873812 -0.029841496 0.16609578 0.04036074 -0.24923764 -0.008980089 -0.27492252 -0.019248525
-0.09239395 0.27977386 -0.22204298 0.06099597 -0.11824616 0.13438305 -0.026950585 -0.02894382
-0.13914725 0.14839533 -0.18281442 -0.058352146 0.017503837 0.109133184 0.2172248 -0.13249032
0.2465151 -0.15173872 0.14359328 -0.12733369 0.049285438 -0.04248024 0.022962682 -0.05286106
-0.12642413 -0.07983888 -0.22769397 0.09215054 -0.26441917 0.2575342 0.13643079 0.09709942
-0.14361896 0.20346424 0.245242 -0.10916828 -0.2084372 0.18031104 -0.12145988 0.060396604
-0.123806596 -0.09819982 0.1608325 0.2597281 0.2624102 0.0978 0.1493187 -0.019433271
0.17962193 -0.027681462 -0.01832964 0.17339517 0.20034297 0.014972894 -0.05657642 0.24806401
-0.014366143 0.2565772 -0.11068171 -0.2272747 0.15923843 0.18858372 -0.20024182 0.0003952123
-0.2597053 0.021726973 0.22490288 -0.20703498 0.20805843 -0.14108229 -0.17614797 -0.22744225
0.11715687 -0.097943544 0.10648496 0.12922752 0.2836739 0.04074601 -0.13652386 0.11700699
0.24625796 -0.13796861 -0.117069505 0.3663505 0.060653277 0.34106266 0.44918075 0.09863067
-0.20347203 -0.13210927 0.06971643 -0.015021886 -0.0052806363 -0.03751037 0.19307134 0.0675701
-0.14462863 0.002368291 -0.19121811 -0.08922571 -0.25794432 -0.14682925 0.09022696 0.18964224
0.116918676 -0.19757536 -0.04366626 -0.115185045 0.049308866 0.22755097 -0.15514499 0.1513562
-0.036595467 -0.19848818 0.20988438 -0.14029431 0.10484912 0.17207676 -0.031709366 0.231054
-0.16397668 -0.21402825 0.28165323 0.31548867 0.05638409 -0.08454175 0.015367987 -0.139744
0.4177606 0.017523058 -0.019167148 0.17569226 0.21087718 0.2655604 0.33169752 0.43481085
-0.258976 0.0286568 0.012956234 -0.1847688 0.041526224 0.20845684 0.0883633 0.09016376
-0.17872445 0.26651424 0.22803013 0.20564902 -0.122523904 0.0034902922 -0.10297823 -0.12644179
0.1901714 -0.20433472 0.14153881 0.33396062 -0.10488196 0.24801153 0.2372216 0.21355174
0.32982597 -0.0372224 0.069563664 -0.15310659 -0.06938643 -0.08342887 0.02360154 0.26982185
-0.07567087 -0.24105144 -0.10469369 0.22826111 0.013344313 -0.12837923 -0.10798149 -0.009625209
-0.019677963 0.034198675 -0.13923863 0.12544134 -0.083821155 -0.053022992 0.12613007 -0.09190923
0.10084537 0.0655649 -0.032882597 -0.15435398 0.120704375 -0.037465293 -0.27579945 -0.06840955
-0.09797432 0.09935146 0.23239861 -0.36508313 0.248361 -0.00668464 -0.1656679 -0.14420083
0.09251607 0.11383598 -0.20704451 -0.017180543 -0.24241237 0.16401067 -0.046106447 0.21866235
0.0037846777 0.2958575 0.07840044 -0.27405432 0.15778628 -0.13215664 -0.115842305 -0.14107542
0.10374444 -0.04781853 -0.11641897 0.071637824 -0.22703353 0.21819267 -0.2070941 0.09810567
-0.108513884 0.08733725 0.24239586 -0.008509805 0.12256406 -0.10542092 -0.17751119 -0.22066206
-0.11189778 0.22423004 0.19565511 0.03034072 -0.113058254 -0.29637256 -0.20565063 0.1795808
0.091434956 0.07119562 0.19900545 0.17575741 0.023347616 -0.1679811 0.07425551 0.017629506
00000000: e82f 48bd 2776 f4bc 0315 2a3e 4e51 253d
00000010: 2738 7fbe 3921 13bc a5c2 8cbe 15af 9dbc
00000020: 0a39 bdbd 853e 8f3e 3c5f 63be e9d6 793d
00000030: 0b2b f2bd b69b 093e 79c7 dcbc 971b edbc
00000040: 9e7c 0ebe f2f4 173e b433 3bbe a902 6fbd
00000050: 3564 8f3c 3881 df3d 2e70 5e3e 8bab 07be
00000060: 746e 7c3e 6561 1bbe 1e0a 133e c363 02be
00000070: 87df 493d c3ff 2dbd 3c1c bc3c d784 58bd
00000080: 5475 01be 9182 a3bd 9c28 69be 6cb9 bc3d
00000090: f361 87be 86db 833e 83b4 0b3e 10dc c63d
000000a0: d910 13be ee58 503e b820 7b3e 9f93 dfbd
000000b0: 9070 55be 75a3 383e f5bf f8bd 6e62 773d
000000c0: 508e fdbd fd1c c9bd 46b1 243e 15fb 843e
000000d0: a15a 863e 5e4b c83d 00e7 183e 8632 9fbc
000000e0: d0ee 373e 3cc4 e2bc 0b28 96bc 818e 313e
000000f0: b526 4d3e df50 753c adbc 67bd 7e04 7e3e
00000100: f95f 6bbc 165e 833e 18ad e2bd b3ba 68be
00000110: 660f 233e 171c 413e 310c 4dbe 7f34 cf39
00000120: 18f8 84be c4fc b13c f14c 663e fa00 54be
00000130: 450d 553e e077 10be 2260 34be 9fe6 68be
00000140: f1ef ef3d a096 c8bd c914 da3d 3854 043e
00000150: b53d 913e 4ae5 263d e9cc 0bbe 5ca1 ef3d
00000160: 0c2b 7c3e a547 0dbe 23c2 efbd 4b92 bb3e
00000170: 926f 783d c49f ae3e 05fb e53e e0fe c93d
00000180: f95a 50be a747 07be 7dc7 8e3d 5b1e 76bc
00000190: 3009 adbb 79a4 19bd 7eb4 453e 3162 8a3d
000001a0: 8719 14be 5435 1b3b aece 43be f8bb b6bd
000001b0: 4711 84be 685a 16be eac8 b83d 9331 423e
000001c0: 0f73 ef3d 3251 4abe 64db 32bd 23e6 ebbd
000001d0: 18f8 493d 1f03 693e 54de 1ebe 1ffd 1a3e
000001e0: 21e5 15bd 7c40 4bbe eeeb 563e 50a9 0fbe
000001f0: 23bb d63d e434 303e aee1 01bd 6b99 6c3e
00000200: 81e9 27be 392a 5bbe da34 903e bb87 a13e
00000210: 01f3 663d 3a24 adbd 02ca 7b3c 0d19 0fbe
00000220: b8e4 d53e 848c 8f3c 6c04 9dbc ace8 333e
00000230: 30f0 573e 88f7 873e 42d4 a93e 879f de3e
00000240: 8198 84be aac1 ea3c 6246 543c 0834 3dbe
00000250: 6717 2a3d b675 553e d1f7 b43d c7a7 b83d
00000260: 8b03 37be 8e74 883e bb80 693e a895 523e
00000270: d0ed fabd 63bd 643b 40e6 d2bd f579 01be
00000280: 4bbc 423e 1f3d 51be 8def 103e e3fc aa3e
00000290: 5acc d6bd bcf6 7d3e 38ea 723e 4fad 5a3e
000002a0: f3de a83e 8476 18bd 6577 8e3d f9c7 1cbe
000002b0: 791a 8ebd c1dc aabd 0458 c13c 1726 8a3e
000002c0: 54f9 9abd 30d6 76be a569 d6bd 48bd 693e
000002d0: 1ba2 5a3c d875 03be 6625 ddbd 0db3 1dbc
000002e0: ae33 a1bc e913 0c3d 9294 0ebe b273 003e
000002f0: 6daa abbd a32e 59bd 3e28 013e e83a bcbd
00000300: 0488 ce3d e446 863d e7af 06bd f80e 1ebe
00000310: db33 f73d 3575 19bd 9635 8dbe 4e1a 8cbd
00000320: c3a6 c8bd c778 cb3d e7f9 6d3e 2dec babe
00000330: 5952 7e3e d30a dbbb d9a4 29be 62a9 13be
00000340: 1179 bd3d d722 e93d 7a03 54be 36be 8cbc
00000350: f33a 78be 6af2 273e 1dda 3cbd 06e9 5f3e
00000360: 5b08 783b a27a 973e 6990 a03d d950 8cbe
00000370: ba92 213e 1254 07be bb3e edbd 1376 10be
00000380: f777 d43d 5ddd 43bd 126d eebd dab6 923d
00000390: 7a7b 68be e66d 5f3e 7a10 54be a0eb c83d
000003a0: 873c debd dfdd b23d 9f36 783e b66c 0bbc
000003b0: de02 fb3d ece6 d7bd 7ec5 35be 3cf5 61be
000003c0: aa2a e5bd 8f9c 653e d059 483e 1a8d f83c
000003d0: 168b e7bd 25be 97be 1496 52be 07e4 373e
000003e0: 4042 bb3d 02cf 913d 16c8 4b3e c0f9 333e
000003f0: 8043 bf3c 3d03 2cbe 4613 983d c16b 903c

wavenet.conv_layers.0.out_conv.bias f4 [16]
0.15530322 0.022172041 -0.09845525 -0.15913422 -0.20435798 0.19922528 -0.17384008 -0.17567466
0.21490832 0.23910245 -0.10832832 -0.15915783 0.19283667 0.15909977 -0.027519112 -0.10561657
00000000: cf07 1f3e 24a2 b53c e8a2 c9bd 15f4 22be
00000010: 3843 51be b601 4c3e 2203 32be 0fe4 33be
00000020: ed10 5c3e 46d7 743e 3ddb ddbd 45fa 22be
00000030: fa76 453e 0deb 223e c36f e1bc 804d d8bd

wavenet.conv_layers.1.conv.weight f4 [32, 16, 2]
-0.29031488 0.06117833 0.21694638 -0.023718216 -0.020351736 -0.14706235 0.11921511 -0.05254328
0.10029799 -0.11578194 -0.056527827 0.1381061 -0.21912369 -0.06385121 -0.19216383 -0.038862314
-0.019824335 0.10400432 0.10217121 -0.068827614 -0.1922115 -0.08679189 0.16853899 -0.033381622
-0.12608643 -0.10334191 0.12374242 0.09235567 0.12667915 -0.033293772 0.18208642 -0.025594296
-0.39728633 0.24366076 0.38067138 -0.2801569 0.09272882 -0.09651877 -0.08142259 0.012333085
-0.10962802 0.12367225 -0.056878477 -0.06487763 -0.20981437 0.05707218 -0.05071879 -0.14182693
0.1481677 -0.048945803 0.035256512 -0.12396135 0.07529588 0.12192162 0.09413207 0.13923778
-0.18100508 0.10573385 0.11251667 -0.07094244 -0.17897096 0.2245703 0.19493845 -0.13362221
0.17011221 0.07626562 -0.46481413 -0.023470555 -0.06722528 -0.008921943 -0.07952458 -0.007928403
-0.014834713 0.10468842 0.07000726 -0.030534802 0.06368459 -0.11111416 -0.11928485 -0.067306176
0.0063053705 0.12020461 0.1942854 0.10373049 0.0035004227 -0.12133666 0.15068842 -0.11918673
0.023270003 0.015048471 0.064458326 0.090476744 0.038025446 0.09277325 -0.13174893 0.13494062
0.36755884 -0.12013399 -0.33044356 -0.07148932 -0.074355274 0.16573416 0.026805349 0.008909266
0.17545502 0.04483016 0.10069512 -0.09840751 0.10115136 0.04804803 0.13751112 -0.07752109
0.062449504 -0.01995365 0.0036933976 -0.08662646 0.1731155 -0.15196668 0.15979928 0.13411398
0.12208721 0.08621065 0.10507631 0.0767757 -0.04210087 0.14926094 0.06912056 0.022133935
0.13909407 0.008122596 0.054601848 0.15650235 -0.0033740788 0.051660273 0.0008336226 -0.11328898
0.06808555 -0.18388587 -0.1352824 0.1183269 -0.065440804 0.0033362478 -0.11629703 -0.02975649
0.068010435 -0.09816465 -0.11745083 -0.16938463 -0.052601624 -0.020089276 0.038519755 0.09152939
0.032507442 0.13755985 0.09506229 0.11930257 0.19892864 -0.04120981 -0.19041409 -0.14777395
-0.16660394 -0.15311383 0.07122579 0.006125767 -0.08157933 0.045146566 0.09210832 0.08071722
-0.09994737 0.029058378 -0.16267224 -0.0047861794 -0.13024765 -0.13770945 -0.15743409 0.112401865
0.09569789 -0.14884414 0.13933058 -0.15156369 -0.04144259 0.118145406 -0.016364971 0.09261805
-0.18171066 0.098286994 -0.03285875 0.10428328 0.08430791 -0.214944 -0.07050721 -0.021149814
-0.09779726 0.115676366 0.29295436 -0.26124504 -0.043986354 0.022555904 0.06962735 -0.15977865
-0.07025197 0.1042121 0.03270023 0.062569566 -0.26243678 0.12052265 0.007909497 0.08574592
0.07272542 -0.12803498 -0.07315728 0.14277464 -0.115104295 -0.04807803 -0.043889515 0.050310317
0.12760901 -0.109336056 -0.07071962 -0.04200865 -0.20646998 -0.05540716 -0.051029067 0.13618673
0.5448558 -0.2700036 -0.19761096 0.029870842 -0.02900108 -0.08259877 -0.109402716 0.01035885
0.098149955 -0.027569402 -0.11046442 0.054306567 0.2371661 0.088141456 -0.13015999 -0.09302699
-0.057240162 0.014753675 0.1264465 -0.009966441 0.08557106 -0.06657032 0.037733257 0.118584976
-0.05677309 -0.0042682947 -0.05954475 -0.04770624 0.09137034 -0.09689915 0.09175111 0.12268052
00000000: 27a4 94be 2196 7a3d 3127 5e3e b44c c2bc
00000010: afb8 a6bc 8397 16be 0d27 f43d 9f37 57bd
00000020: 0869 cd3d 151f edbd b989 67bd af6b 0d3e
00000030: f661 60be 6cc4 82bd 98c6 44be 172e 1fbd
00000040: a566 a2bc 3800 d53d 243f d13d 7ef5 8cbd
00000050: 17d3 44be f2bf b1bd 7c95 2c3e 2bbb 08bd
00000060: cd1c 01be eca4 d3bd aa6c fd3d f824 bd3d
00000070: 2eb8 013e 0d5f 08bd dd74 3a3e 21ab d1bc
00000080: 1d69 cbbe 3582 793e 5ce7 c23e ba70 8fbe
00000090: 9ce8 bd3d a2ab c5bd e3c0 a6bd b510 4a3c
000000a0: a884 e0bd e047 fd3d 68f9 68bd 90de 84bd
000000b0: 94d9 56be 85c4 693d 82be 4fbd 143b 11be
000000c0: 46b9 173e 657b 48bd 2269 103d 73df fdbd
000000d0: ba34 9a3d 0bb2 f93d 51c8 c03d 5994 0e3e
000000e0: 6559 39be fd8a d83d 246f e63d 454a 91bd
000000f0: 2a44 37be c2f5 653e f29d 473e 43d4 08be
00000100: e531 2e3e 2631 9c3d 1efc edbe 5245 c0bc
00000110: 68ad 89bd 572d 12bc c8dd a2bd 22e6 01bc
00000120: 4c0d 73bc e266 d63d f75f 8f3d 1f24 fabc
00000130: 116d 823d d28f e3bd 9e4b f4bd d2d7 89bd
00000140: 489d ce3b d62d f63d c0f2 463e a770 d43d
00000150: 5967 653b 5b7f f8bd 114e 1a3e 2c18 f4bd
00000160: bca0 be3c dd8d 763c ba02 843d df4b b93d
00000170: 92c0 1b3d e7ff bd3d 31e9 06be e02d 0a3e
00000180: ac30 bc3e cf08 f6bd e62f a9be fe68 92bd
00000190: 9447 98bd 37b6 293e e496 db3c 2cf8 113c
000001a0: 7baa 333e d49f 373d 3e39 ce3d e089 c9bd
000001b0: 7228 cf3d 03ce 443d b7cf 0c3e 61c3 9ebd
000001c0: 0dcb 7f3d d675 a3bc ee0c 723b 3769 b1bd
000001d0: 3145 313e 279d 1bbe 6ca2 233e 2d55 093e
000001e0: dc08 fa3d 368f b03d 4032 d73d 943c 9d3d
000001f0: f671 2cbd dcd7 183e 158f 8d3d 3a52 b53c
00000200: ad6e 0e3e a314 053c 30a6 5f3d 2742 203e
00000210: a61f 5dbb b999 533d 7787 5a3a 0e04 e8bd
00000220: 7070 8b3d 944c 3cbe 7887 0abe 6055 f23d
00000230: d405 86bd f3a4 5a3b 232d eebd e2c3 f3bc
00000240: 0e49 8b3d 8c0a c9bd 108a f0bd 2a73 2dbe
00000250: cd74 57bd 4492 a4bc e4c6 1d3d c373 bb3d
00000260: 8626 053d 7ddc 0c3e 05b0 c23d e854 f43d
00000270: f3b3 4b3e 9ecb 28bd e9fb 42be 0e52 17be
00000280: 399a 2abe dfc9 1cbe d4de 913d a8ba c83b
00000290: 1013 a7bd 9beb 383d 49a3 bc3d 124f a53d
000002a0: 35b1 ccbd d60b ee3c 8d93 26be 62d5 9cbb
000002b0: a45f 05be b503 0dbe 6736 21be f332 e63d
000002c0: 41fd c33d 996a 18be adac 0e3e 8333 1bbe
000002d0: b5bf 29bd 38f6 f13d d50f 86bc 88ae bd3d
000002e0: 5c12 3abe b14a c93d e696 06bd 7992 d53d
000002f0: a0a9 ac3d 481a 5cbe 1666 90bd 6042 adbc
00000300: ee49 c8bd bbe7 ec3d 1dfe 953e e9c1 85be
00000310: 092b 34bd 29c7 b83c c998 8e3d 049d 23be
00000320: 44e0 8fbd 276d d53d adf0 053d 7924 803d
00000330: 1d5e 86be 94d4 f63d d696 013c 8f9b af3d
00000340: 11f1 943d 9a1b 03be 7cd3 95bd 8433 123e
00000350: cdbb ebbd 78ed 44bd 7ec5 33bd 3112 4e3d
00000360: f0ab 023e 95eb dfbd 73d5 90bd 4311 2cbd
00000370: de6c 53be 9ef2 62bd db03 51bd 8974 0b3e
00000380: ab7b 0b3f e93d 8abe 875a 4abe b2b3 f43c
00000390: ac93 edbc 8b29 a9bd 880e e0bd 2ab8 293c
000003a0: d802 c93d 3ad9 e1bc 2b3b e2bd 9070 5e3d
000003b0: acdb 723e 8283 b43d a948 05be ef84 bebd
000003c0: a974 6abd 66b9 713c 317b 013e 494a 23bc
000003d0: e13f af3d 0556 88bd 308e 1a3d aedc f23d
000003e0: e68a 68bd 0ddd 8bbb 32e5 73bd 9e67 43bd
000003f0: 5f20 bb3d 1073 c6bd 02e8 bb3d ed3f fb3d

wavenet.conv_layers.1.conv.bias f4 [32]
-0.11360844 -0.13516845 -0.14586388 -0.059706952 -0.02935719 -0.047607884 -0.044426907 -0.14953119
0.10479996 0.013617835 -0.1671049 0.07433412 0.059773322 0.05000834 -0.07660766 -0.049618952
0.06782792 0.22624488 0.15851092 -0.2769277 -0.017682035 0.031779237 -0.19289382 0.058692053
0.03268908 -0.05806199 -0.15570405 0.13553168 0.024120135 -0.14483058 -0.13924153 0.12918755
00000000: 8bab e8bd 9969 0abe 575d 15be 478f 74bd
00000010: 7d7e f0bc 7c00 43bd fdf8 35bd b41e 19be
00000020: 5da1 d63d 571d 5f3c 8c1d 2bbe 7d3c 983d
00000030: dfd4 743d 8cd5 4c3d 7ae4 9cbd 3e3d 4bbd
00000040: 5de9 8a3d bdac 673e b050 223e 78c9 8dbe
00000050: ead9 90bc f22a 023d f585 45be 1467 703d
00000060: fce4 053d 69d2 6dbd e270 1fbe d1c8 0a3e
00000070: 9797 c53c 784e 14be 5595 0ebe be49 043e

wavenet.conv_layers.1.skip_conv.weight f4 [16, 16, 1]
0.28466538 0.45923662 -0.18515903 -0.35981834 0.16346578 0.11580005 0.21493433 -0.23687664
0.33285192 0.29185745 -0.2731082 0.26421767 -0.3043783 -0.20874998 -0.07891886 -0.6198462
0.109716214 0.18157496 -0.056806378 0.15322806 0.18430267 0.32224977 0.062080134 0.10414722
-0.049988165 0.09944778 0.08787624 -0.1065601 -0.048405554 0.19815373 0.3806306 -0.09461272
-0.09513062 0.30738693 0.15781485 -0.21206637 0.1392037 -0.015246252 0.31136233 0.05274311
0.09531329 0.08880165 -0.04352847 0.27129534 -0.001976797 -0.23732989 -0.18554227 -0.037891507
-0.114531934 -0.16825531 -0.019576019 0.1340121 0.10576635 -0.095739715 0.039128553 -0.021235645
0.17269212 0.022362925 0.16399156 -0.014481358 0.18080902 0.039955497 -0.1070879 0.17962676
0.104695916 0.29950985 -0.23590267 0.03644649 0.083548106 0.12700896 0.11072798 -0.16970298
0.11972338 0.042573106 -0.10646073 0.190842 -0.025222411 -0.17084032 0.032048363 -0.1597011
0.27284357 -0.041525837 -0.19845387 -0.32314098 -0.085975654 -0.11789707 -0.08896083 -0.037346955
-0.06159262 -0.12851658 0.08387697 0.02780989 -0.26715618 0.07570425 0.04446483 0.00419713
0.29657927 0.032722335 0.12768 -0.2366178 -0.106661685 -0.10931628 0.2053282 -0.08484436
0.2118656 0.19384518 -0.08922575 -0.2040778 -0.2206402 -0.17503174 0.14207198 -0.48906568
0.20502959 0.026678078 0.122744456 0.15034978 -0.08998595 0.08199209 0.25747296 -0.0064799595
-0.08598347 -0.18335582 -0.12532291 -0.14485471 -0.21051295 0.00944109 0.23416978 -0.32727864
0.21765627 0.23399548 0.014524847 -0.20136312 -0.1740974 -0.12590119 0.24219197 0.07071364
-0.20341323 0.13208802 -0.13137949 -0.04004034 -0.22149326 -0.20960683 -0.15555474 -0.2368697
-0.10356123 -0.21057472 -0.22367825 0.10894906 -0.019514767 -0.15388636 0.025537213 -0.13115251
-0.050045162 -0.1048021 0.16479814 0.21386677 -0.16267343 0.020593276 0.08745683 0.16547638
-0.16702224 -0.009460391 0.22195718 0.06828316 -0.004884722 -0.057338562 -0.2283445 0.18071553
0.22742307 0.07291823 -0.0649901 -0.020558449 0.2404347 0.0010453768 -0.015404191 0.064650744
0.024695624 -0.0670093 -0.11618422 0.07146517 0.25924304 0.071770355 -0.1997815 0.003324776
-0.027024396 -0.185782 0.26073506 0.10477015 0.14187877 0.1922962 -0.26151258 0.28193054
0.0452466 -0.02184731 0.25058576 -0.13286516 -0.003977922 -0.29534608 0.02031274 0.24044052
-0.25352776 0.0037019744 0.11666912 0.18025285 0.08985427 0.10967937 -0.014421945 0.42233464
-0.29411733 0.046287507 0.20755702 -0.061763253 0.1491801 0.084414065 0.015395071 0.18180983
-0.2604737 -0.13669343 0.1816674 -0.020472154 0.1336065 -0.22756042 0.08857677 0.07439702
-0.030282177 -0.29248393 0.27423522 0.011467021 0.07715903 0.03854549 -0.25183445 0.084324695
0.0011134384 -0.03070814 -0.15849628 -0.24613738 0.26792422 -0.17502797 -0.11132669 -0.0027394004
-0.2082765 0.015229451 0.23221377 0.14376666 0.21493053 0.16825798 -0.20744114 0.1662115
-0.056839433 -0.2859055 0.32879353 -0.20120677 0.12072139 0.056105025 -0.25090942 0.13933961
00000000: a9bf 913e 1021 eb3e 549a 3dbe 1c3a b8be
00000010: 9363 273e 9428 ed3d bf17 5c3e ca8f 72be
00000020: 916b aa3e 576e 953e d7d4 8bbe 8a47 873e
00000030: 79d7 9bbe 8ec2 55be 36a0 a1bd 3eae 1ebf
00000040: e5b2 e03d c9ee 393e cead 68bd d1e7 1c3e
00000050: d7b9 3c3e ecfd a43e bd47 7e3d 234b d53d
00000060: 64c0 4cbd 47ab cb3d 75f8 b33d 2f3c dabd
00000070: e744 46bd d0e8 4a3e 04e2 c23e 50c4 c1bd
00000080: d8d3 c2bd d261 9d3e 379a 213e ed27 59be
00000090: 6a8b 0e3e 6acb 79bc e26a 9f3e 2909 583d
000000a0: 9d33 c33d a4dd b53d e94a 32bd 39e7 8a3e
000000b0: 268d 01bb 9b06 73be cbfe 3dbe 2034 1bbd
000000c0: b88f eabd 1f4b 2cbe e35d a0bc 783a 093e
000000d0: 079c d83d 2f13 c4bd 4345 203d 60f6 adbc
000000e0: 34d6 303e 7432 b73c 67ed 273e 3843 6dbc
000000f0: 0026 393e 60a8 233d e750 dbbd 14f0 373e
00000100: d06a d63d 5b59 993e 7890 71be ea48 153d
00000110: 451b ab3d a30e 023e 5ac5 e23d 9ec6 2dbe
00000120: 8831 f53d 2361 2e3d 1508 dabd 166c 433e
00000130: 3b9f cebc c4f0 2ebe 2545 033d af88 23be
00000140: 27b2 8b3e ff16 2abd 7e37 4bbe bc72 a5be
00000150: 0114 b0bd 0574 f1bd 1831 b6bd 1ff9 18bd
00000160: 8b48 7cbd da99 03be b0c7 ab3d 91d1 e33c
00000170: b2c8 88be d40a 9b3d c120 363d 1488 893b
00000180: 3dd9 973e db07 063d 8cbe 023e f04b 72be
00000190: 7171 dabd 37e1 dfbd 8e41 523e e1c2 adbd
000001a0: 4cf3 583e 5a7f 463e fdbb b6bd c5f9 50be
000001b0: 81ef 61be 853b 33be 517b 113e d166 fabe
000001c0: 47f3 513e fc8b da3c 7261 fb3d 4bf5 193e
000001d0: 8e4a b8bd 78eb a73d 7fd3 833e d755 d4bb
000001e0: 1a18 b0bd a1c1 3bbe a654 00be cb54 14be
000001f0: b590 57be cdae 1a3c 34ca 6f3e 1191 a7be
00000200: 49e1 5e3e 839c 6f3e a0f9 6d3c 2232 4ebe
00000210: 9746 32be 3eec 00be 2c01 783e 50d2 903d
00000220: 8f4b 50be 1542 073e 5888 06be 5701 24bd
00000230: 21cf 62be 2ca3 56be be49 1fbe f88d 72be
00000240: e917 d4bd e6a0 57be e90b 65be af20 df3d
00000250: 6fdd 9fbc 6394 1dbe 6b33 d13c d84c 06be
00000260: 28fc 4cbd 7ca2 d6bd d8c0 283e e4ff 5a3e
00000270: dd93 26be 3bb3 a83c 911c b33d a472 293e
00000280: e107 2bbe c1ff 1abc be48 633e 0bd8 8b3d
00000290: 0510 a0bb d7db 6abd 24d3 69be 7e0d 393e
000002a0: 98e1 683e 2756 953d 8819 85bd 316a a8bc
000002b0: 8434 763e 0605 893a dc61 7cbc 9c67 843d
000002c0: 7a4e ca3c 2c3c 89bd fef1 edbd 555c 923d
000002d0: 81bb 843e 56fc 923d 8693 4cbe 7ce4 593b
000002e0: 4462 ddbc a33d 3ebe 117f 853e bb91 d63d
000002f0: ab48 113e 4ce9 443e fae4 85be 3359 903e
00000300: 8054 393d 21f9 b2bc c74c 803e ce0d 08be
00000310: 3a59 82bb 9a37 97be e766 a63c 0a36 763e
00000320: 64ce 81be d39c 723b 38f0 ee3d 3494 383e
00000330: 8405 b83d 949f e03d 064a 6cbc 3f3c d83e
00000340: 8c96 96be f897 3d3d d489 543e 77fb 7cbd
00000350: abc2 183e 48e1 ac3d 9c3b 7c3c 5b2c 3a3e
00000360: cf5c 85be 5df9 0bbe 0507 3a3e 38b5 a7bc
00000370: 24d0 083e 9905 69be bd67 b53d 775d 983d
00000380: 5412 f8bc 74c0 95be 8f68 8c3e 2ce0 3b3c
00000390: 8e05 9e3d e0e1 1d3d 72f0 80be 6db2 ac3d
000003a0: cbf0 913a a38f fbbc d94c 22be 700b 7cbe
000003b0: 5d2d 893e 883a 33be 3fff e3bd 8387 33bb
000003c0: 6f46 55be f284 793c 72c9 6d3e 9137 133e
000003d0: c016 5c3e d24b 2c3e 736b 54be 5933 2a3e
000003e0: 77d0 68bd 3562 92be a057 a83e 2609 4ebe
000003f0: c73c f73d 62ce 653d 3377 80be 0baf 0e3e

wavenet.conv_layers.1.skip_conv.bias f4 [16]
0.10520889 -0.18025258 0.100429334 -0.21792746 -0.1918961 -0.020180412 0.009304361 -0.21474108
0.027489997 0.127468 0.037632864 -0.10898347 0.050688654 0.19914158 -0.13227884 -0.05371954
00000000: c277 d73d 2294 38be e5ad cd3d 6028 5fbe
00000010: 6980 44be 6451 a5bc 5271 183c 16e5 5bbe
00000020: b432 e13c f986 023e eb24 1a3d ba32 dfbd
00000030: e89e 4f3d c5eb 4b3e 1b74 07be 0509 5cbd

wavenet.conv_layers.1.out_conv.weight f4 [16, 16, 1]
-0.19878085 0.07443835 -0.14626993 0.005025877 -0.21349227 -0.17733653 -0.115613535 -0.04522731
-0.1485224 0.049239308 -0.20690693 -0.0564233 -0.23164439 0.15259832 -0.16737534 -0.10894202
0.28411332 -0.018662333 0.04911371 -0.2239764 -0.17852487 -0.0064654765 0.20650287 0.04915675
0.12225941 -0.17375155 0.10554387 0.050216436 0.10613584 -0.19274336 -0.01687002 -0.23496379
0.083003394 -0.15397222 0.18189529 0.058273043 -0.105409734 -0.017166464 0.12963937 -0.20535256
-0.06729821 0.12191149 0.26866436 0.063326895 -0.011965684 -0.18141599 0.027352104 -0.19420826
-0.011677276 0.061503645 0.22825891 0.025053117 0.28361633 -0.024790391 -0.0743396 0.10680599
0.26602656 0.1852867 0.035346527 0.0028148089 -0.27596498 -0.14803877 -0.18555331 -0.054146275
0.044338945 -0.26332292 0.073705144 -0.17709413 -0.08064877 0.0047953436 0.07945846 -0.18726243
-0.13639434 -0.006762503 0.17248082 -0.004983742 0.11114114 -0.045440774 -0.19060664 0.20017013
0.48466614 0.12241357 0.3300856 -0.27394664 0.15320833 0.12969834 0.40596667 -0.012077732
0.036032382 -0.07550629 -0.10474521 -0.3165975 -0.43134132 -0.27061582 0.03224194 -0.24183524
0.10934571 0.020541929 0.23287202 0.09067795 -0.20909949 0.058415268 0.08236531 0.12688304
0.062018886 0.23864022 0.20816998 0.11457182 -0.14454255 -0.15778558 -0.09480943 -0.25407135
0.08966766 -0.18871376 -0.24259695 -0.055942822 -0.034352727 -0.13935181 -0.14722995 -0.061280847
-0.25298715 -0.11033123 0.2151943 -0.16369258 -0.07926892 0.22195081 0.022263175 -0.22408283
0.3890956 0.18654029 -0.10850966 0.03853963 -0.09800848 0.22924724 -0.145369 -0.07760816
-0.14918374 -0.07253344 -0.2106705 -0.14162269 0.018770318 0.17480627 -0.11864871 -0.30811623
0.036117252 0.15424055 0.17127727 0.22848444 -0.13609713 0.1905692 -0.21020715 -0.16669959
0.00454887 0.04334644 -0.08931097 0.22087671 0.15106978 0.07411871 0.23834938 0.22972839
-0.015418003 -0.11788227 0.25176647 -0.13997303 -0.17800137 0.058038138 0.13841194 -0.20848803
0.10885132 0.16101979 0.023373969 -0.18072341 -0.09291749 -0.10966356 -0.15657936 0.120323725
0.39592266 -0.25791988 -0.01930475 -0.029285386 -0.08386866 -0.118755564 0.21452641 0.09487695
0.26641223 0.007095874 0.19753373 0.12943499 -0.040260665 -0.045703623 -0.07233381 -0.2504326
-0.43709427 -0.0053063515 -0.08630274 0.19220786 0.097921066 0.14739195 -0.3400634 0.15189879
-0.12742649 0.13601907 0.20269737 0.31879437 0.2999673 -0.009352834 0.36315995 0.38385573
-0.13495894 -0.17321222 -0.2469864 0.18936568 -0.29039457 0.014474878 0.15199111 -0.20628607
0.026843103 -0.23390739 -0.015245765 0.058319066 -0.015295751 0.16638443 0.20232463 -0.050746102
-0.053088542 0.14841677 0.10635607 -0.17296545 -0.15479608 -0.22494979 -0.19802712 0.035922393
-0.09469251 -0.027929729 -0.18108886 0.074102655 0.18860468 0.1791332 0.052695397 0.21166086
-0.049409136 0.06634948 0.16107252 0.27027598 -0.14170857 0.20030929 -0.28714466 -5.289058e-05
-0.14617968 -0.22836125 -0.0848687 -0.008922653 0.20410533 -0.050414704 -0.12810841 0.20528904
00000000: 358d 4bbe 2273 983d c9c7 15be 1db0 a43b
00000010: b89d 5abe b597 35be cac6 ecbd 4640 39bd
00000020: 4216 18be 28af 493d 69df 53be 1e1c 67bd
00000030: 3034 6dbe bc42 1c3e 7164 2bbe fe1c dfbd
00000040: 4d77 913e c0e1 98bc 752b 493d 125a 65be
00000050: 39cf 36be 59dc d3bb 7d75 533e 9758 493d
00000060: 2463 fa3d edeb 31be 6227 d83d c0af 4d3d
00000070: bf5d d93d 845e 45be ff32 8abc 599a 70be
00000080: affd a93d e5aa 1dbe c242 3a3e b7af 6e3d
00000090: 0fe1 d7bd afa0 8cbc 2fc0 043e f147 52be
000000a0: a5d3 89bd bbac f93d 608e 893e 88b1 813d
000000b0: b70b 44bc 1dc5 39be 8511 e03c 88de 46be
000000c0: 0c52 3fbc 3feb 7b3d b4bc 693e 323c cd3c
000000d0: 2936 913e 3815 cbbc 5c3f 98bd 19bd da3d
000000e0: a234 883e ccbb 3d3e 85c7 103d a878 383b
000000f0: 484b 8dbe 7a97 17be b001 3ebe 7cc8 5dbd
00000100: c19c 353d 43d2 86be b9f2 963d 2a58 35be
00000110: 2f2b a5bd 4222 9d3b 1ebb a23d b9c1 3fbe
00000120: f5aa 0bbe fd97 ddbb d09e 303e a84e a3bb
00000130: f79d e33d 1b20 3abd 632e 43be 66f9 4c3e
00000140: 2926 f83e f7b3 fa3d fb00 a93e bc42 8cbe
00000150: a5e2 1c3e a4cf 043e ddda cf3e aee1 45bc
00000160: b196 133d 0ba3 9abd a884 d6bd 1119 a2be
00000170: c5d8 dcbe 288e 8abe 2010 043d a8a3 77be
00000180: a5f0 df3d 8c47 a83c 0176 6e3e 5cb5 b93d
00000190: 2d1e 56be d944 6f3d 25af a83d a1ed 013e
000001a0: 8407 7e3d 1a5e 743e 832a 553e a1a4 ea3d
000001b0: f602 14be 8b92 21be 722b c2bd a415 82be
000001c0: aea3 b73d 2e3e 41be 566b 78be 4d24 65bd
000001d0: 72b5 0cbd 3eb2 0ebe 73c3 16be a001 7bbd
000001e0: 8887 81be 57f5 e1bd e55b 5c3e 079f 27be
000001f0: be57 a2bd 1347 633e 4361 b63c f875 65be
00000200: 8a37 c73e 6b04 3f3e 503a debd bbdb 1d3d
00000210: acb8 c8bd cabf 6a3e 9cdb 14be 07f1 9ebd
00000220: 9fc3 18be 6a8c 94bd 02ba 57be 8a05 11be
00000230: 36c4 993c 6a00 333e 18fe f2bd 69c1 9dbe
00000240: afef 133d 3cf1 1d3e 4f63 2f3e d3f7 693e
00000250: 0c5d 0bbe 9324 433e 8b40 57be 4cb3 2abe
00000260: b00e 953b 098c 313d abe8 b6bd 812d 623e
00000270: 09b2 1a3e 8dcb 973d dc11 743e eb3d 6b3e
00000280: cb9b 7cbc 426c f1bd 89e7 803e 1755 0fbe
00000290: fe45 36be 66b9 6d3d dcbb 0d3e e37d 55be
000002a0: 71ed de3d 5fe2 243e c47a bf3c 8f0f 39be
000002b0: 864b bebd 4a97 e0bd 5756 20be 496c f63d
000002c0: 60b6 ca3e 130e 84be ff24 9ebc e8e7 efbc
000002d0: 55c3 abbd 1e36 f3bd d0ac 5b3e d94e c23d
000002e0: 2f67 883e 8184 e83b 4846 4a3e 9b8a 043e
000002f0: 5ee8 24bd b933 3bbd c023 94bd b438 80be
00000300: d2ca dfbe e7e0 adbb 7ebf b0bd 23d2 443e
00000310: d78a c83d eaed 163e ca1c aebe 5b8b 1b3e
00000320: 177c 02be 9548 0b3e e68f 4f3e 0439 a33e
00000330: 5095 993e a13c 19bc 1af0 b93e bd88 c43e
00000340: ad32 0abe 8b5e 31be 01ea 7cbe 14e9 413e
00000350: 99ae 94be 0a28 6d3c 8fa3 1b3e a83c 53be
00000360: 11e6 db3c 6b85 6fbe 60c9 79bc f9df 6e3d
00000370: 089b 7abc ae60 2a3e 302e 4f3e 25db 4fbd
00000380: 5f73 59bd 91fa 173e 36d1 d93d db1d 31be
00000390: dd82 1ebe 3d59 66be 9fc7 4abe 5c23 133d
000003a0: 26ee c1bd e3cc e4bc 5c6f 39be 22c3 973d
000003b0: 9621 413e b26e 373e 21d7 573d a0bd 583e
000003c0: 3c61 4abd 3ce2 873d 32f0 243e 9d61 8a3e
000003d0: 0d1c 11be e11d 4d3e a004 93be d4d6 5db8
000003e0: 20b0 15be 88d7 69be a4cf adbd 5230 12bc
000003f0: fd00 513e a67f 4ebd da2e 03be 4a37 523e

wavenet.conv_layers.1.out_conv.bias f4 [16]
-0.1375801 0.16566668 -0.13938697 -0.12870735 0.03034852 0.030588618 -0.10626316 -0.1331886
-0.13972762 -0.24795379 0.14202374 -0.027425084 0.20600566 -0.1748448 -0.23789066 0.07312583
00000000: cce1 0cbe 87a4 293e 75bb 0ebe dccb 03be
00000010: 769d f83c fb94 fa3c 80a0 d9bd 9862 08be
00000020: c214 0fbe 99e7 7dbe ac6e 113e 92aa e0bc
00000030: 26f3 523e 840a 33be 9c99 73be ffc2 953d

wavenet.conv_layers.2.conv.weight f4 [32, 16, 2]
-0.08146286 -0.1343795 0.24657403 0.19414875 -0.12531734 0.024746053 0.050208297 -0.066599004
-0.011939228 0.19095539 -0.070856266 0.096556455 -0.02284567 0.14677745 -0.03436234 0.068155915
-0.011526517 -0.18547924 -0.09034059 -0.058310334 -0.08958668 0.003597289 0.07086746 0.118358955
-0.034159627 -0.04384044 -0.025249524 0.04869432 -0.11308656 0.15635264 0.005450599 -0.11338948
0.12465928 -0.021247724 -0.20251639 0.09267862 0.00064237055 0.09037047 -0.054591246 0.040333264
0.04841694 0.015370835 -0.18446451 0.15375726 -0.09828625 -0.10107472 0.1132707 -0.09373376
0.03330385 0.07060787 0.054423664 0.12504442 0.082542434 -0.14920893 0.046877008 0.040018253
0.060189452 -0.07106537 0.18519427 -0.018110516 0.1503701 -0.078438446 -0.09882971 0.14725871
0.11556929 0.18470939 -0.09979907 -0.15082058 -0.15179566 0.13261822 0.03843169 0.024711594
-0.15350631 0.21977536 0.029121296 -0.10367225 -0.065900005 -0.11896513 0.067316756 0.02396523
0.23359251 -0.04313758 -0.26949096 0.07058212 0.18050489 -0.15442339 0.0859029 0.13935639
-0.17949703 0.17096046 0.054518554 -0.042453527 -0.06904475 0.2022705 0.03961063 0.17738955
-0.15846026 -0.09535518 0.059510764 0.12067206 -0.050926764 0.09645548 0.12973212 0.06774122
0.15436849 0.16044919 -0.13230444 0.09773577 0.012291043 -0.1720564 0.00063831906 -0.07297348
-0.01585864 0.019050637 -0.15417537 0.11385072 -0.03932276 -0.10945438 0.17109516 0.18958293
0.079675734 -0.18547532 0.04624063 0.07719302 -0.081488416 0.1450237 -0.07298398 -0.048270416
-0.098775074 0.11265169 -0.12187776 0.11052155 -0.072615534 -0.0887743 -0.19789256 -0.055782486
0.031308297 -0.03705816 -0.09686118 0.10262855 -0.18894048 0.08833921 -0.0628764 -0.028889244
-0.16916014 0.07960924 0.12911835 0.071876645 -0.04980705 0.04197975 0.08437772 0.16268457
-0.12756237 0.11926735 0.018973004 -0.07056039 0.07135038 0.12946227 0.120992385 0.09225411
0.06963242 0.05430803 -0.076098874 0.094288155 -0.009159237 0.12135268 -0.14038356 0.19023293
0.021517018 -0.24497001 -0.16118976 0.16370893 -0.10103874 0.07454089 -0.10760986 -0.055866778
0.06091374 -0.11043418 0.11918099 -0.21882445 0.047757957 -0.0052113715 0.10374814 -0.026817333
0.18073976 0.045229413 -0.10864529 0.032624297 0.01841 -0.12793572 0.11275636 -0.05753636
0.09926836 0.10077415 0.008144998 0.21124552 0.20042694 0.0009979297 -0.037224248 0.13340029
-0.11265421 -0.10207799 -0.008206467 -0.017849425 0.053508695 0.027772212 -0.13283391 -0.13632149
0.0013861188 -0.115411125 0.08851999 0.0136502255 -0.12373234 -0.03207834 0.14962499 -0.004680348
-0.19722262 0.015561599 0.044151083 -0.17578036 -7.429616e-05 -0.025580125 -0.1006867 -0.010708652
-0.051553022 0.013259699 -0.0925838 0.064934194 0.07366288 0.12272101 0.17494513 -0.02333814
-0.15817635 0.044707756 0.13557275 -0.14463878 -0.10110883 0.11120257 0.05937165 -0.006155981
0.08969072 -0.07304642 0.01590914 -0.12387118 0.1423748 0.0999068 0.16715387 0.07306424
-0.14439265 0.14055002 0.061150268 0.1171047 -0.08472872 0.09300361 0.15185267 -0.074237645
00000000: 00d6 a6bd c89a 09be e77d 7c3e eece 463e
00000010: 3053 00be 3cb8 ca3c 37a7 4d3d 0f65 88bd
00000020: c09c 43bc cf89 433e 171d 91bd 64bf c53d
00000030: d826 bbbc d44c 163e 86bf 0cbd 5495 8b3d
00000040: b7d9 3cbc 45ee 3dbe 7d04 b9bd d1d6 6ebd
00000050: 3979 b7bd 7fc0 6b3b f522 913d 2e66 f23d
00000060: f7ea 0bbd 0992 33bd 17d8 cebc b273 473d
00000070: ed99 e7bd e81a 203e f09a b23b be38 e8bd
00000080: 5d4d ff3d b50f aebc 7560 4fbe 4ace bd3d
00000090: c264 283a 2714 b93d 129b 5fbd 7e34 253d
000000a0: d750 463d f4d5 7b3c 44e4 3cbe 8b72 1d3e
000000b0: 4d4a c9bd 4300 cfbd 78fa e73d 7cf7 bfbd
000000c0: 9e69 083d dc9a 903d 59eb 5e3d a50b 003e
000000d0: 020c a93d 3aca 18be 1b02 403d 2eea 233d
000000e0: 3789 763d b98a 91bd 91a3 3d3e 815c 94bc
000000f0: 9ffa 193e 56a4 a0bd 3b67 cabd fdca 163e
00000100: 98af ec3d 7524 3d3e 7463 ccbd b670 1abe
00000110: 5270 1bbe 12cd 073e 8c6a 1d3d f86f ca3c
00000120: c230 1dbe cb0c 613e c98f ee3c 1e52 d4bd
00000130: 95f6 86bd fda3 f3bd 5edd 893d bb52 c43c
00000140: e032 6f3e 08b1 30bd b8fa 89be 5c8d 903d
00000150: 46d6 383e 2a21 1ebe dced af3d 71b3 0e3e
00000160: 12ce 37be 4210 2f3e d94e 5f3d c0e3 2dbd
00000170: 5567 8dbd ff1f 4f3e c23e 223d 9ba5 353e
00000180: 6843 22be 9449 c3bd 8fc1 733d ea22 f73d
00000190: 9598 50bd 738a c53d 7fd8 043e e9bb 8a3d
000001a0: c612 1e3e cb4c 243e d17a 07be b129 c83d
000001b0: 5f60 493c 8e2f 30be de54 273a 1f73 95bd
000001c0: fbe9 81bc 1510 9c3c 26e0 1dbe 912a e93d
000001d0: e710 21bd 9e29 e0bd 9233 2f3e 0722 423e
000001e0: 082d a33d 3eed 3dbe d166 3d3d 6017 9e3d
000001f0: 66e3 a6bd 1881 143e a078 95bd 33b7 45bd
00000200: 964a cabd eeb5 e63d 0c9b f9bd 1f59 e23d
00000210: 74b7 94bd 4dcf b5bd 59a4 4abe 2d7c 64bd
00000220: 213d 003d 4cca 17bd 285f c6bd eb2e d23d
00000230: 9d79 41be 30eb b43d 58c5 80bd 23a9 ecbc
00000240: 5138 2dbe 2b0a a33d 9a37 043e 1034 933d
00000250: 7a02 4cbd f5f2 2b3d 3ace ac3d c996 263e
00000260: b69f 02be 7142 f43d 466d 9b3c f781 90bd
00000270: 2620 923d c291 043e dbca f73d b9ef bc3d
00000280: 719b 8e3d 1972 5e3d bad9 9bbd 261a c13d
00000290: a010 16bc c187 f83d b5c0 0fbe 6ccc 423e
000002a0: 7544 b03c 6bd9 7abe ee0e 25be 50a3 273e
000002b0: 66ed cebd e5a8 983d 8f62 dcbd 90d4 64bd
000002c0: b080 793d 512b e2bd 2a15 f43d 8413 60be
000002d0: d99d 433d 27c4 aabb e879 d43d 06b0 dbbc
000002e0: d813 393e 7a42 393d 6c81 debd 0ea1 053d
000002f0: 91d0 963c 9501 03be ceec e63d 3fab 6bbd
00000300: 364d cb3d ad62 ce3d 9972 053c bf50 583e
00000310: b83c 4d3e f7cc 823a 7478 18bd 169a 083e
00000320: 40b7 e6bd 440e d1bd 6b74 06bc f538 92bc
00000330: ef2b 5b3d 8d82 e33c 9d05 08be dc97 0bbe
00000340: 6eae b53a ab5c ecbd f849 b53d 32a5 5f3c
00000350: 6267 fdbd 9464 03bd 4b37 193e 9b5d 99bb
00000360: baf4 49be 14f6 7e3c c4d7 343d c4ff 33be
00000370: 72cf 9bb8 698d d1bc d434 cebd 5873 2fbc
00000380: 4329 53bd 353f 593c 939c bdbd 38fc 843d
00000390: 90dc 963d 2755 fb3d d124 333e a12f bfbc
000003a0: fbf8 21be 7b1f 373d 95d3 0a3e 301c 14be
000003b0: 2512 cfbd 2cbe e33d b02f 733d 1db8 c9bb
000003c0: c5af b73d 5d99 95bd e353 823c 2cb0 fdbd
000003d0: b3ca 113e f09b cc3d 622a 2b3e b4a2 953d
000003e0: abdb 13be 58ec 0f3e b478 7a3d 97d4 ef3d
000003f0: 4086 adbd ad78 be3d 447f 1b3e e809 98bd

wavenet.conv_layers.2.conv.bias f4 [32]
0.012353692 -0.042563606 -0.076012835 -0.049631763 -0.067099124 -0.14409925 -0.17897663 0.1286508
0.0065669515 0.018369853 -0.03202763 -0.16716526 0.05072391 0.153759 0.054822683 0.14365341
0.09331774 -0.09185869 0.27208447 -0.09567432 -0.18112595 -0.111207776 0.03257579 -0.12661761
-0.1757386 0.31759787 0.13456653 -0.11826647 0.030066408 -0.11847902 0.12642258 -0.011515311
00000000: 2467 4a3c 2d57 2ebd 9eac 9bbd ad4a 4bbd
00000010: 446b 89bd c18e 13be a645 37be 09bd 033e
00000020: 952f d73b 607c 963c 672f 03bd 5f2d 2bbe
00000030: e0c3 4f3d 0073 1d3e c08d 603d e119 133e
00000040: 5f1d bf3d 6920 bcbd a84e 8b3e e6f0 c3bd
00000050: 1579 39be e7c0 e3bd 316e 053d 0ca8 01be
00000060: d2f4 33be 309c a23e cfcb 093e b135 f2bd
00000070: d44d f63c 21a5 f2bd ec74 013e b7aa 3cbc
